lenet_test/Lenet1.pth (torch, 487495 bytes, 10 tensors)

conv1.weight f4 [16, 3, 5, 5]
0	0x3d1161a3	0.035493504
1	0x3daf31ba	0.085544065
2	0x3cae65e0	0.021288812
3	0xbc06691d	-0.008203772
4	0x3d47ff38	0.04882738
5	0xbc93bb9c	-0.018033795
6	0x3b61d125	0.0034456935
7	0xbc10d131	-0.008838938
8	0xbd96b6f9	-0.07359118
9	0x3d53b7ac	0.051688835
10	0x3dfac590	0.12244713
11	0x3db07e94	0.08617893
12	0xbb6e4ee8	-0.003636295
13	0x3df3f9a8	0.119128525
14	0xbd439b46	-0.047755502
15	0x3dcb2f96	0.09921186
16	0xbd9f48ff	-0.07777595
17	0xbc720d8c	-0.014773738
18	0xbd5a1f69	-0.05325261
19	0xbdaceebc	-0.084439725
20	0x3cefe203	0.029282575
21	0xbd8c7101	-0.06857491
22	0x3c5ef695	0.013608594
23	0xbda586f4	-0.08082381
24	0x3dd4e0bf	0.103944294
25	0x3dcf9bcd	0.101371385
26	0x3df41140	0.11917353
27	0x3e26e560	0.16298437
28	0xbd399d9b	-0.04531632
29	0x3c685b5a	0.014181936
30	0xbc36d627	-0.011159456
31	0xba098c03	-0.00052469986
32	0xbce8d27b	-0.028420677
33	0x3d618a60	0.055063605
34	0xbbb8de01	-0.0056416993
35	0xbd5aa0b0	-0.0533759
36	0x3d3b8574	0.045781568
37	0x3d37af4a	0.044844903
38	0x3d952d96	0.072840855
39	0xbc9d4af1	-0.019200774
40	0xbd89bf99	-0.067259975
41	0x3dbe738b	0.09299382
42	0xbd3c5599	-0.04598007
43	0x3e00efe5	0.12591513
44	0x3c84f61f	0.016230641
45	0x3c4ad16d	0.012379033
46	0x3e0a8468	0.13527071
47	0x3d222ccb	0.0395935
48	0x3cfcdb40	0.030866265
49	0x3d3cf4e4	0.046131983
50	0x3d1deeaa	0.038557686
51	0x3de31389	0.110877104
52	0x3e4e1558	0.2012533
53	0x3d97f488	0.074196875
54	0x3e2e8686	0.17043504
55	0x3db87a77	0.09007733
56	0x3dd2017b	0.102541886
57	0xbb20fcf6	-0.002456484
58	0x3dafebfa	0.08589931
59	0xbbc5cceb	-0.006036391
60	0x3e0673b9	0.13130082
61	0xbc8e5db5	-0.017378667
62	0x3d219476	0.039448224
63	0x3e3d1038	0.18463218
64	0x3e3138be	0.17306802
65	0xbb596e6b	-0.0033177387
66	0xbc0bb74f	-0.008527591
67	0xbc8b842c	-0.017030798
68	0x3d05c1da	0.032655574
69	0x3de46545	0.11152128
70	0x3e1695e5	0.14705618
71	0x3e1877f5	0.1488951
72	0x3e2dfc9c	0.16990894
73	0x3d880ab1	0.06642664
74	0xbc61d05a	-0.013782585
75	0x3dc716f4	0.09721175
76	0xbd89bdcf	-0.06725656
77	0x3df8a4f3	0.121408366
78	0xbd817642	-0.06321384
79	0xbcb62666	-0.022235107
80	0x3e0dbc8c	0.13841456
81	0x3dfda304	0.123846084
82	0x3d50066d	0.050787378
83	0x3d3a6b63	0.04551257
84	0x3dbc03dc	0.091804236
85	0xbd7f7e08	-0.062376052
86	0xbc1dcb99	-0.009631061
87	0x3d600405	0.054691333
88	0x3d5bc5b3	0.053655338
89	0xbc4072ba	-0.011746103
90	0x3df7fcab	0.121087395
91	0xbd25f7ef	-0.04051965
92	0xbcda0fb0	-0.026618809
93	0x3cc364fd	0.023851866
94	0x3de9a5af	0.11408555
95	0x3df9412b	0.12170633
96	0x3d8f3850	0.06993163
97	0x3da1f5f8	0.07908243
98	0x3d6f85bd	0.058477152
99	0xbdb934d9	-0.09043283
100	0x3ddac35c	0.10681793
101	0xbdbe4f12	-0.09292425
102	0xbdd4984e	-0.10380612
103	0xbd83c483	-0.06433966
104	0xbd9429f7	-0.07234567
105	0x3d4f4fde	0.050613277
106	0x3cf69f5d	0.030105287
107	0xbdcea9f6	-0.10091011
108	0x3b89e6f3	0.0042084395
109	0x3bb041d0	0.005378939
110	0x3df4ca91	0.11952699
111	0xbd94289f	-0.0723431
112	0x3c89d04d	0.016822958
113	0x3cb0421b	0.021515897
114	0x3d2f5781	0.04280806
115	0x3df95264	0.12173918
116	0x3cf997f8	0.030467972
117	0xbd86b652	-0.065777436
118	0xbc30ea6c	-0.010798078
119	0xbd94b504	-0.072610885
120	0x3d7fb8b1	0.062431995
121	0xbdcba88c	-0.09944257
122	0x3d3c1318	0.045916647
123	0x3d5101ec	0.051027223
124	0x3d05bc39	0.032650206
125	0x3d2adc48	0.041713983
126	0xbcf90ccf	-0.030401615
127	0xbe1a0a00	-0.15042877
128	0xbdee9d44	-0.1165109
129	0x3d8091ea	0.06277831
130	0xbd6b2999	-0.057412717
131	0xbdbcb4bf	-0.09214162
132	0x3c79121b	0.015202071
133	0x3d87f398	0.06638259
134	0xbcf0c370	-0.029390067
135	0xbc386115	-0.011253615
136	0xb79870ce	-1.817234e-05
137	0xbdc52c04	-0.09627536
138	0xba3af4d3	-0.00071318186
139	0xbbef856f	-0.0073096077
140	0x3bfcbf96	0.0077132685
141	0xbd800c8f	-0.06252395
142	0xbe136b0a	-0.14396301
143	0xbd052d75	-0.032514054
144	0xbe11c5d1	-0.14235617
145	0x3d39e814	0.045387343
146	0xbcc3d8ba	-0.023907054
147	0xbdb64325	-0.088995256
148	0xbe0ddfb2	-0.13854864
149	0xbdf8202d	-0.12115512
150	0xbd91f6f3	-0.0712718
151	0xbddcda5b	-0.107838355
152	0xbdcfd45d	-0.10147927
153	0xbde00379	-0.10938162
154	0x3dc696ac	0.09696707
155	0xbc5383ea	-0.012909869
156	0x3d23724d	0.039903928
157	0xbd9a512a	-0.07535012
158	0xbd635cfc	-0.0555086
159	0xbb1ec504	-0.0024226317
160	0x3dac517e	0.08413981
161	0xbdcb07c0	-0.099135876
162	0xbd8a5421	-0.067543276
163	0x3d60121a	0.054704763
164	0xbdefec4e	-0.117149934
165	0xbdc61828	-0.09672576
166	0x3d7a1856	0.061058365
167	0xbe064e07	-0.13115703
168	0xbdda3d98	-0.10656279
169	0x3dc0c32a	0.094122246
170	0x3dd0863f	0.101818554
171	0x3c3d873a	0.011567885
172	0x3d3f02ba	0.04663346
173	0xbd83b5c4	-0.064311534
174	0xbceee940	-0.029163957
175	0xbc458be1	-0.0120572755
176	0xbd4789c9	-0.048715387
177	0x3dafccff	0.08584022
178	0xbd53077f	-0.05152082
179	0x3c06bd4e	0.008223845
180	0x3d48fb1d	0.049067605
181	0x3996817f	0.00028706712
182	0xbc462cad	-0.0120956125
183	0xbd9ce741	-0.07661296
184	0x3da3e32c	0.08002314
185	0x3cf17c88	0.029478326
186	0x3d18ca39	0.03730223
187	0xbd76216e	-0.060090475
188	0x3daf9fb5	0.085753836
189	0xbd8bf7bc	-0.06834361
190	0x3caa7845	0.020809302
191	0xbd74e2c6	-0.05978658
192	0xbe0304b9	-0.1279477
193	0xbdb49797	-0.08817976
194	0xbd7d761c	-0.061880216
195	0x3d7d4dca	0.061841764
196	0x3ad1ae38	0.0015997356
197	0xbd1e4b84	-0.038646236
198	0x3d3c9d06	0.046048187
199	0xbd7cb69b	-0.061697584
200	0xbbb73e8c	-0.005592173
201	0x3d3facc3	0.046795618
202	0xbc671967	-0.0141051775
203	0x3d21574d	0.039389897
204	0x3db847de	0.089980826
205	0x3de0257a	0.10944648
206	0x3d09cfd6	0.033645473
207	0x3d4b3535	0.04961129
208	0x3d5f5df8	0.054532975
209	0xba5342f0	-0.00080589857
210	0xbc952848	-0.018207684
211	0xbd881182	-0.06643964
212	0xbdbf3eeb	-0.093381725
213	0xbd3fb651	-0.04680473
214	0xbdca4ee5	-0.09878329
215	0x3d531c0d	0.051540423
216	0xbd360350	-0.044436753
217	0xbda683d2	-0.081306115
218	0x3db58b9c	0.08864519
219	0x3d76c64f	0.060247716
220	0x3c875ec9	0.01652469
221	0x3c8f9df3	0.01753137
222	0x3da23477	0.07920163
223	0x3dc3f85f	0.095688574
224	0xbd353e17	-0.044248667
225	0xbdb7ea67	-0.089802556
226	0xbd5fff87	-0.05468705
227	0xbd456520	-0.048192143
228	0xbde4e2ad	-0.111760475
229	0xbd74f80d	-0.059806872
230	0xbd4429c0	-0.04789138
231	0x3d1c4d1e	0.038159482
232	0x3d869b15	0.06572548
233	0x3d327fd8	0.043578953
234	0x3dac3e38	0.08410305
235	0x3d586161	0.052827243
236	0x3d5bac8e	0.053631358
237	0xbd68f211	-0.056871478
238	0x3d90c590	0.07068932
239	0x3dd93fc6	0.10607867
240	0xbb6b9ca5	-0.0035951522
241	0xbd0ece8b	-0.034864943
242	0xbd9331d3	-0.071872376
243	0x3bec7e73	0.0072172224
244	0x3ce36440	0.027757764
245	0x3c9e8bed	0.019353831
246	0xbd386163	-0.04501475
247	0xbbb008e7	-0.005372155
248	0x3db92f1d	0.09042189
249	0xbd4e8256	-0.050417267
250	0xb9a0f394	-0.00030699058
251	0x3c75efd5	0.015010794
252	0xbcac984d	-0.021068716
253	0x3db61d64	0.088923246
254	0x3dcc7435	0.09983102
255	0x3d781daf	0.060575183

conv1.bias f4 [16]
0	0x3cc0eb59	0.023549723
1	0x3d6a30ea	0.057175554
2	0xbde6839c	-0.11255571
3	0x3d314e19	0.04328737
4	0x3de311f5	0.110874094
5	0xbd264b8b	-0.040599387
6	0x3d44df5e	0.048064582
7	0xbd87d47b	-0.06632324
8	0x3d406733	0.04697342
9	0xbd28bca8	-0.04119554
10	0xbc0238fe	-0.007948158
11	0x3d641b92	0.055690356
12	0xbdaf6149	-0.085634775
13	0xbb0f8188	-0.0021897275
14	0xbd993415	-0.07480637
15	0x3c9dac5f	0.019247232

conv2.weight f4 [32, 16, 5, 5]
0	0x3d9ae7ff	0.07563781
1	0xbc17b86e	-0.00926028
2	0xbd20198a	-0.039086856
3	0x3c8bc358	0.01706092
4	0x3ba39d91	0.0049931486
5	0x3b84a786	0.0040482907
6	0xbc98d4b8	-0.01865612
7	0x3cae1af0	0.02125308
8	0xbd2790a0	-0.04090941
9	0xbc82682f	-0.01591882
10	0x3b8695d9	0.0041072187
11	0x3c83e368	0.016099647
12	0xbd7788a2	-0.060433038
13	0xbd1fb3bd	-0.03898977
14	0x3cc11348	0.023568764
15	0x3c413401	0.011792184
16	0x3c3aeee1	0.011409492
17	0xbd1b4aa3	-0.037912976
18	0xbcddea21	-0.02708918
19	0xbc86dc27	-0.016462399
20	0xbc7a7b2a	-0.015288154
21	0xbc858e12	-0.016303096
22	0x3ca3b326	0.019982886
23	0xbd70459d	-0.05866014
24	0xbd245c8c	-0.040127322
25	0x3c8b658e	0.017016198
26	0x3d6ef4b4	0.058338836
27	0x3da17cc4	0.07885125
28	0x3d571ea1	0.052519444
29	0x3c9e2413	0.01930431
30	0x3dabc91e	0.083879694
31	0x3dd82caa	0.10555394
32	0x3dc8b8b8	0.09800857
33	0x3d5cfc50	0.05395156
34	0x3d600b63	0.05469836
35	0x3defbcc2	0.117059246
36	0x3de7f4fe	0.113260254
37	0x3d945f1c	0.07244703
38	0x3d449dce	0.048002057
39	0x3d342216	0.04397782
40	0x3da4f924	0.08055332
41	0x3dc17bc1	0.09447432
42	0x3d4f3b10	0.050593436
43	0x3d87d941	0.06633235
44	0x3d2f0169	0.042725954
45	0x3d357012	0.04429633
46	0x3d2217f1	0.039573614
47	0x3be138b3	0.006873214
48	0x3d9c0340	0.076178074
49	0x3d90f085	0.070771255
50	0x3d201b30	0.039088428
51	0xbceeaac7	-0.029134167
52	0x3d59c919	0.053170297
53	0x3c72cbb4	0.014819074
54	0xbaf0e959	-0.001838009
55	0x3c491c44	0.012274805
56	0x3bdacda8	0.006677348
57	0x3cd7693d	0.026295299
58	0xbc0428e6	-0.008066392
59	0x3bd25d08	0.0064197816
60	0xbc667456	-0.014065823
61	0x3d3eedf2	0.04661364
62	0x3d340e7d	0.04395913
63	0x3cbf2397	0.0233324
64	0x3d2d1692	0.042257853
65	0x3d8c0191	0.06836236
66	0x3d711c71	0.058865014
67	0x3d7ba8da	0.061440326
68	0x3d37e726	0.044898175
69	0x3d442c3f	0.04789376
70	0x3d4f2da9	0.050580654
71	0x3d07e080	0.033173084
72	0x3d29c62f	0.04144877
73	0xb9bc1c4c	-0.00035879237
74	0xbd3bd97e	-0.045861714
75	0x3b9cb2cc	0.0047820564
76	0xbc345f6f	-0.011009081
77	0xbdb226a4	-0.08698776
78	0xbda94c8b	-0.082665525
79	0x3c203ef5	0.009780635
80	0xbd0c95f4	-0.034322694
81	0xbb027957	-0.001990875
82	0x3b90e29e	0.004421546
83	0x3d32e010	0.043670714
84	0x3b10f8a2	0.0022120853
85	0x3c7d2e21	0.0154528925
86	0x3cb6e776	0.022327166
87	0xbc046e7e	-0.008082984
88	0x3d4c30a7	0.049851086
89	0xbbdc2096	-0.0067177517
90	0xbd83ed5e	-0.064417586
91	0xbd3b84aa	-0.045780815
92	0xbc17f7d3	-0.0092753945
93	0xbd844690	-0.06458771
94	0xbd8473b8	-0.06467384
95	0xbcc6c08e	-0.02426174
96	0x3d023f3d	0.03179859
97	0xbd416984	-0.04721977
98	0xbd1690f4	-0.03675933
99	0x3cbe93c6	0.023263823
100	0x3bf2cc9f	0.0074096466
101	0xbaec63d1	-0.0018035119
102	0x3caf9d62	0.02143735
103	0xbc591f5d	-0.0132521065
104	0x3c673999	0.014112853
105	0x3d096b53	0.033549618
106	0x3cfb5117	0.030678315
107	0x3d6cf732	0.05785293
108	0xbd09b8aa	-0.033623375
109	0xbbac7f87	-0.005264226
110	0x3c9ba45c	0.018999271
111	0x3d808ec8	0.06277233
112	0xbccbbf2f	-0.024871437
113	0xbc825017	-0.01590733
114	0x3cc1548b	0.023599884
115	0xbc57f5f6	-0.0131812
116	0xbcc207b0	-0.023685306
117	0x3be3fe66	0.006957817
118	0xbd5f97fd	-0.054588307
119	0xbd774a73	-0.060373735
120	0xbcd7b703	-0.026332384
121	0xbc527600	-0.012845516
122	0xbd01309b	-0.031540494
123	0x3cbdc80b	0.023166677
124	0xbc07c076	-0.008285632
125	0xbc0f65ca	-0.008752296
126	0x3d2b81f6	0.041871987
127	0x3d858712	0.06519903
128	0xbb9826e1	-0.0046433066
129	0x3d81de5a	0.06341238
130	0xbbea739e	-0.007154896
131	0x3d6af27d	0.05736016
132	0xbc6862c5	-0.014183705
133	0x3da07854	0.07835451
134	0x3d847c44	0.06469014
135	0x3d5168e9	0.05112544
136	0xbbc5106e	-0.0060139215
137	0x3ba7bfcd	0.0051193
138	0x3bc1b4f5	0.0059114643
139	0x3dab7e83	0.083737396
140	0x3d1c054c	0.03809099
141	0x3c97ae4a	0.018515725
142	0x3d967ac8	0.073476374
143	0x3d3b0dfb	0.04566763
144	0x3da7e04e	0.081970796
145	0x3c65fadc	0.01403686
146	0x3d237f7a	0.039916493
147	0x3baa0f97	0.0051898467
148	0x3d8a4147	0.06750732
149	0xbcf50cb4	-0.029913284
150	0x3c399fae	0.0113295745
151	0x3c4f2fa1	0.012645633
152	0xbc0b05de	-0.008485286
153	0x3d44fb64	0.048091307
154	0x3b7da513	0.0038703128
155	0x3c839a52	0.016064797
156	0xbd2ca5a6	-0.042150162
157	0xba8f69de	-0.0010941585
158	0x3d823433	0.063576125
159	0x3d7bced5	0.061476547
160	0xbd4752a8	-0.04866281
161	0x3c669f72	0.014076101
162	0x3d7eb446	0.06218364
163	0x3d9d034b	0.07666644
164	0x3db97c5f	0.09056925
165	0xbd8fcb4a	-0.07021196
166	0xbc976c0b	-0.018484136
167	0x3d86c862	0.06581189
168	0x3e0b0932	0.13577726
169	0x3d4bf98b	0.04979853
170	0xbd8183e6	-0.06323986
171	0x3c125a2a	0.00893263
172	0x3de164c3	0.11005547
173	0x3dd09a7e	0.10185717
174	0x3e02dc3f	0.1277933
175	0x3d261a37	0.040552344
176	0x3cfbc8ad	0.030735338
177	0x3ce68005	0.028137216
178	0x3d3be74a	0.04587487
179	0x3d375cf4	0.04476638
180	0xbd188c27	-0.037243035
181	0xbc93b216	-0.018029254
182	0x3d599478	0.053120106
183	0x3bcd727c	0.006269751
184	0x3d0b15d5	0.033956368
185	0xbcb6050b	-0.022219202
186	0xbab16bb4	-0.0013536126
187	0x3d33a38e	0.04385715
188	0x3cca14d2	0.024668131
189	0xbc0742ef	-0.008255704
190	0x3d351866	0.04421272
191	0x3c301fb0	0.010749742
192	0x3d444701	0.047919277
193	0x3d069b45	0.03286292
194	0xbc3a9a48	-0.011389323
195	0xbca97b6c	-0.020688735
196	0x3c89a38b	0.016801616
197	0x3d285c98	0.04110393
198	0x3d214225	0.03936972
199	0x3d70ff48	0.058837205
200	0x3c6ef75d	0.014585343
201	0xbb28f2c8	-0.0025779475
202	0x3c5372a3	0.0129057495
203	0x3d71c140	0.05902219
204	0x3d984412	0.074348584
205	0xbcd2d41d	-0.02573591
206	0x3d999348	0.07498795
207	0x3dbdae78	0.09261793
208	0x3d852a09	0.06502158
209	0x3db68d3e	0.089136586
210	0x3d1e8352	0.038699456
211	0x3d680ec5	0.05665471
212	0x3d70d83d	0.05879997
213	0x3dc42125	0.09576634
214	0x3c3c7d1b	0.011504437
215	0x3d923fcd	0.07141075
216	0x3d4f7ebb	0.05065797
217	0x3c2e9797	0.010656259
218	0x3d7af152	0.061265297
219	0x3d918c29	0.071068116
220	0xbd40e51d	-0.0470935
221	0xbcc233dc	-0.02370637
222	0x3cc5a8aa	0.024128277
223	0xbcd88cf7	-0.026434405
224	0x3ab5bff5	0.0013866412
225	0xbc560f7c	-0.013065215
226	0xbd1a8297	-0.037722196
227	0xbcaa37be	-0.020778533
228	0xbc053b02	-0.008131744
229	0xbba6db83	-0.005092086
230	0xbd31953d	-0.043355215
231	0xbd2e30ce	-0.042527013
232	0x3d4f1562	0.0505575
233	0x3cbd3d2c	0.023100458
234	0x3cba8194	0.022766866
235	0x3c8fa017	0.017532391
236	0xbd0ba825	-0.034095902
237	0x3cc7e5f1	0.024401637
238	0x3d756a38	0.05991575
239	0xbc7eb341	-0.015545667
240	0xbbd341c8	-0.0064470507
241	0xbce9e640	-0.028552175
242	0x3a9189eb	0.0011103725
243	0x3ba00614	0.004883537
244	0xbccab647	-0.02474512
245	0xbd391342	-0.04518438
246	0x3ccb350f	0.024805574
247	0xbd118a82	-0.035532482
248	0xbd601f35	-0.05471726
249	0xbd3cae54	-0.04606469
250	0xbc3e46bf	-0.011613547
251	0xbd3c073f	-0.045905348
252	0xbdce0f3f	-0.10061502
253	0xbe09af23	-0.13445716
254	0xbd8f4be6	-0.06996898
255	0x3d5ef1ff	0.054430004

conv2.bias f4 [32]
0	0xbd27336f	-0.040820535
1	0x3d492d04	0.049115196
2	0xbca8fa18	-0.020627066
3	0x3c7ecdd7	0.015552006
4	0x3bc3ed17	0.005979191
5	0xbcb44a93	-0.022008216
6	0x3d2eb060	0.042648673
7	0xbc2c9c04	-0.010535244
8	0xbd0c3dfd	-0.034238804
9	0x3d57e716	0.052710615
10	0xbd0a3ce8	-0.03374949
11	0x3d129dbe	0.035794966
12	0xbd9b9d56	-0.07598369
13	0xbd46fe25	-0.048582215
14	0xbd049069	-0.032364283
15	0xbba2cade	-0.0049680313
16	0x3b7f5ff8	0.0038967114
17	0xbd10e1d5	-0.03537162
18	0xbce3076f	-0.027713506
19	0xbc5cab6e	-0.013468606
20	0x3cdd67bf	0.027027009
21	0x3c60768f	0.013700142
22	0xbc623d59	-0.013808572
23	0x3c745b61	0.014914365
24	0x3ca015c1	0.019541623
25	0x3c0cea55	0.008600791
26	0x3cfbd439	0.030740844
27	0xbd50a90b	-0.050942462
28	0xbd2d99b2	-0.042382903
29	0x3d308df5	0.04310413
30	0xbc57bf35	-0.013168146
31	0xbc50e0ac	-0.012748878

fc1.weight f4 [120, 800]
0	0xbcf10fe6	-0.029426526
1	0xbc96fa1f	-0.018429814
2	0x3cec76ee	0.028865304
3	0xbca1e7d5	-0.019763866
4	0xbce57151	-0.028008135
5	0xbc80f613	-0.015742337
6	0xbcf108b6	-0.029423099
7	0xbc1de169	-0.0096362615
8	0xbce78c8c	-0.02826526
9	0xbd26cd39	-0.04072306
10	0x3ce0879b	0.027408412
11	0xbc1b80b6	-0.009491136
12	0xbce53685	-0.027980099
13	0xbb8b30e5	-0.004247772
14	0xbd07fa38	-0.03319761
15	0x3c3b54d8	0.011433803
16	0x3c9846d5	0.018588463
17	0x3c9f5d57	0.019453688
18	0x3bb1b41b	0.0054230816
19	0x3cdf13f7	0.0272312
20	0x3cb45a8f	0.022015838
21	0xbd050114	-0.03247173
22	0xbbf204da	-0.0073858323
23	0x3cb41886	0.02198435
24	0xbbbb2b74	-0.005711967
25	0xbc9161ea	-0.017746884
26	0x3a9e9439	0.0012098617
27	0xbc3eab86	-0.011637574
28	0xbd147d23	-0.036252152
29	0x3cd8397b	0.026394596
30	0xbd0979f6	-0.033563577
31	0x3c21d371	0.009877072
32	0x3c9b8eab	0.018988928
33	0xbd08549c	-0.033283815
34	0xbd04deea	-0.03243915
35	0xbd1f5f5d	-0.038909305
36	0xbce3f82c	-0.027828299
37	0x3c068601	0.00821066
38	0xbc567f69	-0.0130919
39	0x3ca5ac08	0.020223632
40	0xbc102fa9	-0.008800426
41	0xbccf7129	-0.025322514
42	0x3caa10e5	0.020760009
43	0xbd0e9dd6	-0.034818493
44	0xbc5ac201	-0.013351918
45	0xbcabae05	-0.020957002
46	0x3ce3178e	0.027721193
47	0xbcf94c70	-0.030431956
48	0xbc44b1e4	-0.012005303
49	0xbd187ab5	-0.037226398
50	0x3c36c9c8	0.011156507
51	0x3cdf5a82	0.027264837
52	0x3c71398c	0.014723193
53	0xbd0e0c22	-0.03467954
54	0x3aec4e80	0.0018028766
55	0xbc3d99c2	-0.011572303
56	0x3ccc7964	0.024960227
57	0xbbf2c86c	-0.007409146
58	0x3cc8b8c4	0.024502166
59	0xbcae53fc	-0.021280281
60	0xbc9616e2	-0.018321458
61	0x3c3b3057	0.011425099
62	0xbca7f001	-0.020500185
63	0xbc2d8ff0	-0.010593399
64	0x3be35db8	0.0069386624
65	0xbbc22daf	-0.005925856
66	0xbce7ed77	-0.028311474
67	0x3cc6e005	0.024276743
68	0xbb0a033a	-0.0021059052
69	0xb937383f	-0.00017473193
70	0x3cd51ed8	0.026015684
71	0xbcd1b50e	-0.025599029
72	0x3c6c5672	0.014424907
73	0xbb8ef1a2	-0.004362301
74	0xbc649ef3	-0.013953912
75	0xbbd0004c	-0.0063476916
76	0x3cebe66a	0.028796393
77	0x3b93fe38	0.004516389
78	0x3d05f21d	0.0327016
79	0x3b945a88	0.0045273937
80	0x3c9c3442	0.019067887
81	0xbca37d4c	-0.019957207
82	0xbcb7de34	-0.022444822
83	0x3b6143d0	0.0034372695
84	0x3cd008ae	0.025394764
85	0x3c3121e8	0.010811307
86	0xbc3739ee	-0.011183245
87	0x3cdfccf2	0.027319405
88	0x3bf0c6c0	0.0073479116
89	0xbc90e6b1	-0.017688127
90	0xbb5097a0	-0.0031828657
91	0xbc316196	-0.010826489
92	0xbbc7880c	-0.006089216
93	0xbc82b263	-0.015954202
94	0x3ce79cd2	0.02827302
95	0x3ba95d60	0.005168602
96	0xbd09431f	-0.033511277
97	0x3ce68b8e	0.028142717
98	0xbcc541f8	-0.024079308
99	0xbd0755cf	-0.033040818
100	0xbc86c8aa	-0.016453106
101	0xbbd772e8	-0.006574977
102	0x3cc4c988	0.024021879
103	0xbcf1ae8b	-0.029502174
104	0xbc017c3c	-0.007903155
105	0xbc741f91	-0.014900104
106	0x3ce37c60	0.027769268
107	0xbd07f179	-0.03318927
108	0xbce0bf8f	-0.027435092
109	0xbc498ee0	-0.01230213
110	0x3bdf364e	0.0068118935
111	0x3c4f3d69	0.012648919
112	0xba952b6d	-0.001138074
113	0xbd187dbb	-0.03722928
114	0x3c55bec2	0.0130459685
115	0xbb2e9f45	-0.0026645225
116	0xbc4e54f6	-0.012593498
117	0x3cde1b8a	0.027112741
118	0xbc99ca55	-0.018773237
119	0x3aa3f7af	0.0012509729
120	0xbc591e1c	-0.013251808
121	0x3bafe819	0.0053682444
122	0x3c439bad	0.0119389715
123	0x3cdd0413	0.026979482
124	0xbd119787	-0.0355449
125	0x3d01e065	0.03170814
126	0xbc352784	-0.011056785
127	0x3c8a208a	0.016861219
128	0xbcf74fb1	-0.030189367
129	0x3b9b0bfe	0.004731654
130	0x3c4c7ccc	0.012480926
131	0xbb8a3762	-0.004218028
132	0xbcffb4b9	-0.031214105
133	0x3cb45e14	0.022017516
134	0xbd0cfff1	-0.034423772
135	0xbd0dfc77	-0.034664597
136	0x3b1bee90	0.0023793317
137	0x3bafd910	0.005366452
138	0xbce57162	-0.028008167
139	0xbcf95f6c	-0.030441009
140	0xbbebd764	-0.0071973074
141	0xbcea8af2	-0.028630707
142	0xbd07f40e	-0.033191733
143	0xbcc27379	-0.023736702
144	0x3c69bb43	0.014265838
145	0xbc75abb4	-0.0149945505
146	0x3ca95160	0.020668685
147	0x3abdb7ff	0.0014474391
148	0x3c8e9249	0.017403739
149	0x3c37508a	0.011188636
150	0xbb2f4edc	-0.0026749885
151	0x3bbde5d2	0.005795219
152	0x3c34eed6	0.011043271
153	0xbb450e47	-0.0030068324
154	0xbc85f27f	-0.016350983
155	0xbb083bb6	-0.0020787544
156	0x3c9e412c	0.019318186
157	0x3c881680	0.016612291
158	0xbc8200f8	-0.015869603
159	0x3cca62c5	0.0247053
160	0x3cc4af65	0.024009416
161	0xbc4ffe3d	-0.0126948925
162	0x3ad64b4a	0.0016349342
163	0x3c1d0c67	0.0095854765
164	0x3cad0498	0.021120355
165	0x3c070348	0.008240528
166	0xbd0c40ee	-0.03424161
167	0xbd1040e9	-0.035218153
168	0xbcbeb0d8	-0.023277685
169	0x3ac17937	0.0014760856
170	0x3c177312	0.0092437435
171	0x3cdf42b6	0.02725349
172	0xbc95460f	-0.018221883
173	0xbb9e4b33	-0.004830742
174	0xbc6c7d6e	-0.014434202
175	0x3b5ebe69	0.0033988005
176	0x3c5d0ae4	0.013491366
177	0xbcd7bca1	-0.026335062
178	0xbb2070ab	-0.0024481218
179	0xba920500	-0.0011140406
180	0x3cd4112b	0.025887093
181	0xbc863337	-0.016381843
182	0xbd018b29	-0.031626854
183	0xbbd0887c	-0.0063639265
184	0x3bd31ff1	0.0064430167
185	0x3bff49d5	0.007790784
186	0x3ca5fb3a	0.020261396
187	0xbc5f8060	-0.013641447
188	0xbc8714e5	-0.016489455
189	0xbcbfa320	-0.023393214
190	0xbc5e7695	-0.013578077
191	0xbce06e2f	-0.02739629
192	0x3a7b62a5	0.00095895893
193	0x3c296921	0.010340006
194	0xbd0d5bcb	-0.03451137
195	0x3c229d30	0.009925172
196	0x3ce238b0	0.027614921
197	0xbd069d4d	-0.032864857
198	0xbc1e665d	-0.00966796
199	0xbcc0f3a9	-0.023553686
200	0x3bcac110	0.0061875656
201	0x3c2fa718	0.010720991
202	0xbbce7278	-0.006300267
203	0x3d0a74bb	0.03380273
204	0x3ca6d45c	0.020364933
205	0xbc98cfe1	-0.018653812
206	0x3c8f44aa	0.017488796
207	0x3bf69188	0.007524673
208	0xbce665f9	-0.028124796
209	0xbcb79e3a	-0.022414315
210	0xbc900acf	-0.017583279
211	0x3ab43820	0.0013749637
212	0xbc62c7f2	-0.013841616
213	0xbc2aaad2	-0.010416703
214	0xbc1349d2	-0.008989768
215	0xbc2faf68	-0.010722972
216	0xbcab7413	-0.020929372
217	0x3cdc2356	0.026872318
218	0x39fec480	0.0004859306
219	0xbc28015e	-0.010254232
220	0x3c356b10	0.011072889
221	0xbc8e46bf	-0.017367719
222	0xbcbf2411	-0.023332627
223	0x3d06c8b3	0.032906245
224	0x3afda8c0	0.001935266
225	0x3aca77ee	0.0015447119
226	0xbc898ad7	-0.016789837
227	0xbc13fc2e	-0.009032292
228	0x3cc2bc9c	0.023771577
229	0xbd044544	-0.03229262
230	0x3c9d30a6	0.019188236
231	0x3c9064f7	0.017626269
232	0xbcd18553	-0.02557627
233	0x3d089c3f	0.033352133
234	0x3cc5ce9c	0.02414637
235	0x3c1261e0	0.008934468
236	0xbcc99f26	-0.02461202
237	0x3caeef70	0.021354407
238	0x3c1ab944	0.009443585
239	0xbd264fd2	-0.040603466
240	0x3cb52344	0.022111543
241	0x3ccf1fc2	0.025283698
242	0x3cc20f66	0.023688983
243	0x3c457a64	0.012053106
244	0x3c04371f	0.0080697825
245	0x3c12611f	0.008934288
246	0x3cd8575e	0.026408847
247	0x3c0d29bc	0.008615907
248	0xbcdadfb8	-0.026718006
249	0x3cf2023a	0.029542077
250	0x3c8835c8	0.016627207
251	0xbcfea483	-0.031084305
252	0xbc9450f3	-0.018105006
253	0x3c8efc60	0.017454326
254	0xbb9f0148	-0.0048524477
255	0x3c256390	0.010094538

fc1.bias f4 [120]
0	0xbce88705	-0.028384695
1	0x3cc65e71	0.024214955
2	0xbd09863e	-0.03357529
3	0x3cd41fd1	0.025894077
4	0x3d1c1e09	0.03811458
5	0xbcbf600c	-0.023361228
6	0xbd4011bf	-0.046891924
7	0x3d1b630f	0.037936267
8	0x3c9ef6a3	0.019404715
9	0x3cc76b85	0.024343261
10	0x3cf10411	0.029420884
11	0x3ca0e0d6	0.01963846
12	0x3b675650	0.003529925
13	0x3cab6282	0.020920996
14	0x3b1416f2	0.0022596684
15	0x3c6e1d3f	0.01453334
16	0x3d3913fd	0.045185078
17	0x3cc9df73	0.024642682
18	0xbc9692c9	-0.01838054
19	0x39495800	0.00019201636
20	0xbb24376b	-0.0025057446
21	0x3ce91456	0.02845208
22	0x3caad0c6	0.020851504
23	0xbd283da6	-0.041074418
24	0x3b884e3b	0.0041597164
25	0x3d3274a1	0.043568257
26	0x3d213ac5	0.039362688
27	0xb847bce4	-4.7621215e-05
28	0x3d7153b7	0.058917727
29	0x3d7910bd	0.06080698
30	0x3cf9dc1d	0.030500466
31	0xbd343c1e	-0.044002645
32	0x3bc32db1	0.0059563746
33	0xbc998867	-0.0187418
34	0x3c60153c	0.013676938
35	0x3d0b76c0	0.034048796
36	0xbc943567	-0.01809187
37	0xbc4e54e3	-0.012593481
38	0xbd177127	-0.036973145
39	0xbb8b5d58	-0.004253071
40	0xbd115ba0	-0.03548777
41	0x3c96fadd	0.018430168
42	0x3cc4c66d	0.024020398
43	0xbbb2d767	-0.005457807
44	0xbd1685f3	-0.036748838
45	0x3cbb1781	0.022838356
46	0x3acf77e9	0.0015828583
47	0xbd048fca	-0.03236369
48	0x3b30abf3	0.0026957958
49	0x3bc5d705	0.006037595
50	0x3ca4457a	0.02005266
51	0xbcc5612e	-0.02409419
52	0x3c6eb9c4	0.014570657
53	0xbc4a2fd4	-0.012340505
54	0x3ce35cca	0.027754206
55	0xbc95246c	-0.018205844
56	0xbd039f42	-0.032134302
57	0x3b296f33	0.0025853633
58	0x3d17d436	0.037067614
59	0xb92e6ff7	-0.00016635643
60	0xbcf7e0b2	-0.03025851
61	0x3d0eab05	0.034831066
62	0x3b7fb66f	0.003901865
63	0xbd1a3151	-0.037644688
64	0x3d25b700	0.040457726
65	0xbd106a30	-0.03525752
66	0x3d05541d	0.03255092
67	0xbbae5265	-0.005319881
68	0xbbfb1003	-0.007661821
69	0xbc00cfae	-0.007862015
70	0x3d014a7b	0.03156517
71	0xbd23fa04	-0.040033355
72	0xbc196b98	-0.009364031
73	0xbca5647e	-0.02018952
74	0xba577cc5	-0.0008220191
75	0xbc8b69ec	-0.01701828
76	0xbd22204d	-0.039581586
77	0x3c762587	0.015023596
78	0xbb8dd0c1	-0.004327864
79	0x3d26def4	0.04073997
80	0xbcb85211	-0.02250007
81	0x3c875ad8	0.01652281
82	0x3a848fc7	0.001011365
83	0x3c979a1c	0.018506102
84	0xbbec448d	-0.0072103203
85	0xb9a74d0c	-0.00031910127
86	0x3d1e5f86	0.038665317
87	0xbc89fb44	-0.016843446
88	0xbb9d418e	-0.0047990745
89	0xbd276508	-0.040867835
90	0x3cb19a94	0.021680154
91	0xbb78549d	-0.003789223
92	0xbc167b69	-0.009184697
93	0xbcd4024b	-0.02588
94	0x3cdb548c	0.026773714
95	0xbba29180	-0.0049611926
96	0x3d356c4c	0.044292733
97	0xbc09a40f	-0.008400931
98	0x3c8ac489	0.016939418
99	0xbd1e6d30	-0.038678348
100	0xbd038f06	-0.03211882
101	0xbd109ae4	-0.035303965
102	0x3d144466	0.036198042
103	0xbd067135	-0.032822806
104	0xbc28cbea	-0.010302523
105	0xbb667898	-0.0035167094
106	0xbd08aa0c	-0.033365294
107	0xbc43e670	-0.011956796
108	0xbd2534cf	-0.040333565
109	0x3bd4cde4	0.0064942706
110	0xbd17d4dc	-0.037068233
111	0x3d01ff56	0.031737648
112	0xbb9dd5fa	-0.0048167678
113	0x3c909400	0.017648697
114	0x3ccd4a5b	0.02505987
115	0xbb758ab1	-0.00374667
116	0x3cb988e0	0.022648275
117	0xbcafaf2d	-0.021445835
118	0xbd0998b9	-0.033592913
119	0x3d627e7b	0.055296402

fc2.weight f4 [84, 120]
0	0xbd21d69d	-0.03951131
1	0xbd72ed94	-0.059308603
2	0x3cf4cf4c	0.029884003
3	0x3d429397	0.047504034
4	0xbc487ba2	-0.012236508
5	0x3dbd7d68	0.09252435
6	0x3cb48bee	0.02203938
7	0xbd0d939a	-0.034564592
8	0x3e06d606	0.13167581
9	0x3d164251	0.036684338
10	0xbd323cb6	-0.04351493
11	0xbd66b0ab	-0.056320827
12	0xbd7983c2	-0.06091667
13	0x3db2061a	0.0869257
14	0x3ab5ee03	0.0013880137
15	0xbd6acafb	-0.057322484
16	0x3d05a9df	0.032632705
17	0x3d8683b0	0.06568086
18	0x3d918369	0.071051426
19	0x3c8e9b24	0.017407961
20	0xbd4d163c	-0.050070032
21	0x3d147f47	0.036254194
22	0x3d3a2516	0.045445524
23	0x3db04d94	0.08608547
24	0xbcc585d0	-0.024111658
25	0x3c88e0f3	0.016708827
26	0xbdf4c220	-0.11951089
27	0x3da2125a	0.079136565
28	0x3c0eede5	0.008723711
29	0xbd4e7bfb	-0.050411206
30	0xbcf61850	-0.03004089
31	0xbd7762ac	-0.060396835
32	0xbc873584	-0.01650501
33	0x3d97b031	0.07406653
34	0x3da8627e	0.08221911
35	0x3d05bb1d	0.03264915
36	0x3de067f1	0.10957325
37	0x3d9c424a	0.07629831
38	0x3d3ab514	0.045582846
39	0xbd006c34	-0.03135319
40	0xbd83863c	-0.064220876
41	0xbd8a581a	-0.06755085
42	0x3c52ab60	0.012858242
43	0xbd9b057f	-0.07569408
44	0x3d9028c4	0.070390254
45	0x3d261a9b	0.040552717
46	0x3cc09866	0.02351017
47	0x3c852fbc	0.016258113
48	0xbde79ffb	-0.11309811
49	0xbd38e690	-0.045141757
50	0x3d2f1796	0.042747103
51	0xbd94b179	-0.07260413
52	0x3cb04ec0	0.021521926
53	0x3d36d207	0.04463389
54	0xbdb4cad7	-0.08827751
55	0xbb349340	-0.0027553588
56	0xbda6e0b0	-0.081483245
57	0x3d9db5f8	0.077007234
58	0x3c666b60	0.014063686
59	0xbd15725a	-0.036486007
60	0x3d0f7f34	0.03503342
61	0x3d4f2f82	0.050582416
62	0x3d8bae8e	0.06820403
63	0x3bc2c010	0.005943306
64	0xba9a7eff	-0.0011787115
65	0x3cd77a6b	0.02630349
66	0x3d69cce6	0.057080172
67	0x3db2424f	0.087040536
68	0xbd06915a	-0.03285346
69	0x3d9fbadb	0.07799312
70	0xbc85a324	-0.016313143
71	0xbc681cb0	-0.014166996
72	0xbd983ea6	-0.07433824
73	0x3d67a3f4	0.056552842
74	0x3c141740	0.009038746
75	0x3b4fcda6	0.003170827
76	0xbcf7713c	-0.030205362
77	0xbd3235cf	-0.043508347
78	0x3d807028	0.06271392
79	0xbd205711	-0.039145533
80	0x3dba673a	0.0910172
81	0xbd8a4558	-0.067515075
82	0x3c70e020	0.014701873
83	0x3d6b5748	0.057456285
84	0xbe025652	-0.12728241
85	0x3d33b93d	0.04387783
86	0x3c330222	0.0109258015
87	0x3dba9450	0.091103196
88	0x3de80fe2	0.113311544
89	0x3c131858	0.008977972
90	0xba1ac780	-0.00059043616
91	0x3d98c752	0.07459892
92	0x3a7bda4e	0.000960742
93	0xbda05dcc	-0.0783039
94	0x3c1c4a3a	0.009539181
95	0xbda4391a	-0.08018704
96	0xbd07a942	-0.0331204
97	0x3e060251	0.13086821
98	0xbcd81520	-0.02637726
99	0x3cf06918	0.029346988
100	0xbda9b703	-0.0828686
101	0x3d9d3824	0.076767236
102	0x3bc6a4db	0.006062133
103	0xbd820b69	-0.063498326
104	0x3da7d1d0	0.081943154
105	0x3d69f828	0.057121426
106	0x3d5a5204	0.053300872
107	0x3cda88d0	0.026676565
108	0x3b97be50	0.0046308413
109	0xbd1dccb6	-0.038525306
110	0xbd8744a2	-0.066048875
111	0xbd109120	-0.035294652
112	0x3d45b871	0.0482716
113	0x3c95662d	0.018237198
114	0x3d2e419c	0.04254304
115	0x3d28a0ac	0.041168854
116	0x3d80695a	0.06270094
117	0x3db73cb8	0.08947128
118	0xbd7c43ef	-0.061588224
119	0xbd895d3f	-0.067072384
120	0x3cdef3c0	0.027215838
121	0xbd3cb9e9	-0.046075735
122	0xbd1fab85	-0.038981933
123	0x3d8a8e7c	0.06765458
124	0xbd01ce70	-0.031691015
125	0xbd98602f	-0.074402206
126	0xbcacb380	-0.021081686
127	0x3da7bc39	0.081901975
128	0x3d847965	0.06468467
129	0xbac413c9	-0.001495951
130	0x3c1dac32	0.009623574
131	0x3d9dc44a	0.07703455
132	0x3d8a7a68	0.067616284
133	0xbc0e5c71	-0.008689032
134	0x3c9eb6f6	0.019374352
135	0x3d45d058	0.048294395
136	0xbcd09c21	-0.025465073
137	0xbbe08690	-0.0068519786
138	0xbc74c0b0	-0.014938518
139	0xbdb8dfd2	-0.09027065
140	0xbd4d406a	-0.05011026
141	0xbb6015c7	-0.0034192668
142	0xbd8225bb	-0.06354853
143	0x3c671108	0.014103182
144	0x3cf93494	0.030420579
145	0x3b8a55d6	0.004221658
146	0xbd5798ec	-0.052636072
147	0xbd37f5e7	-0.044912245
148	0x3d2280e8	0.039673716
149	0x3cf1095a	0.029423404
150	0xbd45b8b9	-0.04827187
151	0x3d6138b8	0.05498573
152	0xbb5c8bc0	-0.0033652633
153	0x3c2703c5	0.01019377
154	0xbd89592b	-0.067064606
155	0xbd049d3a	-0.032376505
156	0x3d48525d	0.048906673
157	0xbdaf54d9	-0.08561105
158	0xbd50962b	-0.05092446
159	0x3d4f0cf0	0.050549448
160	0xbdb3224f	-0.08746778
161	0x3d24f634	0.04027386
162	0xbd3a723e	-0.045519106
163	0x3c5d10b6	0.013492754
164	0x3bb93180	0.005651653
165	0xbca0ead0	-0.019643217
166	0x3b9497b0	0.004534684
167	0xbdaa901c	-0.08328268
168	0xbd06c6b0	-0.032904327
169	0xbd07aaca	-0.03312186
170	0xbd226b5d	-0.03965317
171	0xbd9e3efa	-0.077268556
172	0x3c88f37c	0.016717665
173	0x3c221ed1	0.0098950425
174	0x3cb82808	0.022480026
175	0xbc9d58e4	-0.019207425
176	0xbcb90950	-0.022587448
177	0xbc2588fc	-0.01010346
178	0x3d868441	0.06568194
179	0xbd24c2f9	-0.040225003
180	0xbc819d64	-0.01582212
181	0xbcfc82bf	-0.030824063
182	0xbd34fca0	-0.044186234
183	0xbbda37c0	-0.006659478
184	0x3d8d8507	0.069101386
185	0x3d6dbe2c	0.05804269
186	0x3d21078d	0.03931384
187	0x3ca3fdac	0.020018421
188	0x3d4db074	0.050217107
189	0xbd5f2ebb	-0.054487925
190	0xbd04242c	-0.03226106
191	0x3cc03f84	0.023467787
192	0x3d64d12c	0.055863544
193	0x3d71eed4	0.059065655
194	0xbd985138	-0.07437366
195	0xbd1ef217	-0.038805094
196	0x3c9d0d18	0.019171283
197	0x3d213f4c	0.039367005
198	0x3d64c325	0.055850167
199	0xbcf53ee6	-0.029937219
200	0xbc4c2948	-0.012461014
201	0xbd4ce2d9	-0.050021026
202	0x3d731a28	0.059351116
203	0xbd82e90a	-0.06392105
204	0xbb3abac7	-0.0028492676
205	0xbdc3a89f	-0.09553646
206	0xbd82b29e	-0.06381725
207	0x3d8d0b84	0.06886962
208	0xbd5e2996	-0.05423888
209	0x3cf38060	0.0297243
210	0x3d432850	0.047645867
211	0x3da65026	0.08120756
212	0xb9b9e800	-0.00035458803
213	0xbc4c8270	-0.012482271
214	0x3d804861	0.06263805
215	0xbdbbb23a	-0.091648534
216	0x3c68e43a	0.01421457
217	0xbdbd853a	-0.092539266
218	0xbdb77e77	-0.08959668
219	0xbcf14216	-0.029450458
220	0x3d68bb28	0.05681911
221	0xbd255ca7	-0.040371563
222	0xbd198b67	-0.03748646
223	0x3b39f500	0.002837479
224	0x3d294528	0.04132572
225	0x3d8c655c	0.0685527
226	0x3d7a0a78	0.06104514
227	0xbd66131e	-0.056170575
228	0xb907bc00	-0.00012944639
229	0xbc238273	-0.009979832
230	0xbdba8752	-0.091078416
231	0x3d3228aa	0.04349581
232	0xbd1d9658	-0.038473457
233	0x3d220f83	0.039565574
234	0xbb2bed38	-0.0026233923
235	0x3b18e3fd	0.002332925
236	0xbc7c2e80	-0.015391946
237	0x3d8cfcd0	0.06884158
238	0x3d7b3cf4	0.061337426
239	0xbd9b1a9a	-0.07573433
240	0x3d8aed87	0.06783586
241	0xbd53309e	-0.051560037
242	0x3c915c8e	0.017744329
243	0xbda42aa2	-0.08015944
244	0xbc0f15c6	-0.008733219
245	0x3c74c8af	0.014940425
246	0x3c1fcbb2	0.009753155
247	0x3d116622	0.035497792
248	0x3dc27709	0.094953604
249	0x3df2d0fe	0.11856268
250	0xbd43331f	-0.047656175
251	0xbd6c84a0	-0.05774367
252	0x3c442387	0.011971361
253	0x3dadddb9	0.08489556
254	0xbaefd9ec	-0.0018299199
255	0x3c254cef	0.010089143

fc2.bias f4 [84]
0	0xbc4a2f4f	-0.012340381
1	0xbd6c04d2	-0.057621785
2	0x3debaac6	0.11507182
3	0x3ca32394	0.019914426
4	0xbbffa280	-0.007801354
5	0xbd7c609a	-0.061615564
6	0xb9df02e9	-0.00042536043
7	0x3dbbb262	0.09164883
8	0x3d894476	0.06702511
9	0x3cefc188	0.029267088
10	0xbd14fbe2	-0.036373027
11	0x3d9c03ff	0.0761795
12	0x3d9eb37b	0.07749077
13	0xbc34687c	-0.011011239
14	0xbd7ee576	-0.06223055
15	0x3d26fef4	0.040770486
16	0xbaaf5df1	-0.0013379437
17	0x3c9d480e	0.019199397
18	0xbd7cdb73	-0.06173272
19	0x3d640a98	0.055674165
20	0xbd1aaf99	-0.03776512
21	0xbced8ae2	-0.028996889
22	0xbd0533ae	-0.03251999
23	0xbd11de3f	-0.03561234
24	0x3d1458a9	0.036217365
25	0x3c2d0593	0.010560411
26	0x3dfe86fd	0.12428091
27	0x3dc8b9ae	0.098010406
28	0xbcfefbf0	-0.031125993
29	0xbd987e7f	-0.07446002
30	0xbd3d44d7	-0.04620823
31	0xbd8fa0c7	-0.07013088
32	0xbc1e03f3	-0.009644496
33	0xbd766061	-0.060150508
34	0x3d31f3ba	0.043445326
35	0xbdbdbb89	-0.09264285
36	0xbd5ffa50	-0.054682076
37	0xbbd3ed6e	-0.006467513
38	0x3d6c77de	0.0577315
39	0xbd502e41	-0.05082536
40	0x3d9edc2c	0.07756838
41	0x3d883d8f	0.06652366
42	0x3d76f5b5	0.06029292
43	0x3d9a6904	0.075395614
44	0xbd9c8626	-0.07642774
45	0xbde7246e	-0.11286245
46	0x3d276dee	0.04087632
47	0xbb36b130	-0.0027876608
48	0xbdbda8eb	-0.09260734
49	0xbcad1a1c	-0.021130614
50	0xbda020c9	-0.07818753
51	0x3c9130ca	0.01772346
52	0x3dbb0787	0.09132295
53	0xbc122d74	-0.00892197
54	0x3d863427	0.06552916
55	0xbd278acc	-0.04090385
56	0x3ddaedb4	0.106898695
57	0xbcf95d9a	-0.03044014
58	0x3d696676	0.05698248
59	0xbbd7e805	-0.006588938
60	0x3d966e4e	0.07345258
61	0x3d27eb3c	0.04099582
62	0xbdcda44f	-0.10041105
63	0x3c5e14a0	0.013554722
64	0xba3d1709	-0.00072132103
65	0xbd7cd5e0	-0.061727405
66	0x3cfb01b4	0.03064046
67	0xbd9336db	-0.07188197
68	0xbd4f773b	-0.050650816
69	0x3d9a53cd	0.07535515
70	0xbc22517d	-0.009907124
71	0xbd228c8a	-0.03968481
72	0xbd350d29	-0.044202004
73	0x3c6f780b	0.014616023
74	0xbdcb58c6	-0.099290416
75	0x3d6810ff	0.056656834
76	0x3d37bef1	0.04485983
77	0x3d465fdc	0.048431262
78	0x3dc8573b	0.09782263
79	0x3c6faf01	0.0146291265
80	0x3d26fd26	0.040768765
81	0xbd62ae54	-0.055342034
82	0xbd5330ad	-0.051560093
83	0x3dd4d7ca	0.10392721

fc3.weight f4 [10, 84]
0	0x3d11bcba	0.035580374
1	0xbdcc55fd	-0.099773385
2	0x3e057845	0.1303416
3	0x3da7390d	0.081651784
4	0xbd7e228e	-0.062044673
5	0xbd883850	-0.06651366
6	0xbd930a80	-0.07179737
7	0x3d3226bd	0.043493975
8	0x3dab10d8	0.08352822
9	0x3d4d2113	0.05008037
10	0xbdb33d99	-0.08751983
11	0x3d986460	0.0744102
12	0x3d5a1b5f	0.05324876
13	0x3ceabe55	0.02865521
14	0x3df2e404	0.11859897
15	0xbcde0414	-0.027101554
16	0xbd803530	-0.06260145
17	0xbd9d9888	-0.07695109
18	0xbdc184b2	-0.09449138
19	0x3db639ac	0.08897719
20	0xbcb0c37d	-0.021577591
21	0x3de00add	0.10939572
22	0xbc60879e	-0.013704209
23	0xbdd6c55c	-0.10486862
24	0x3df9d084	0.12197974
25	0x3ca3ffa7	0.020019365
26	0x3da1ea1f	0.07905983
27	0x3ddf1c4a	0.108940676
28	0xbdfc6bd7	-0.12325256
29	0x3d763f9b	0.060119253
30	0x3d75d63e	0.06001877
31	0x3dcde162	0.10052754
32	0xbc305b65	-0.010763978
33	0x3d8a7c43	0.06761982
34	0x3d8686fa	0.065687135
35	0x3d857920	0.065172434
36	0x3d24c65a	0.040228225
37	0xbdd437a6	-0.103621766
38	0xbd9274b4	-0.071511656
39	0x3a9ae6db	0.0011818068
40	0xbd5e42e8	-0.054263026
41	0xbd557b72	-0.05211968
42	0xbd9cb094	-0.07650867
43	0xbd875934	-0.06608811
44	0x3b79d880	0.0038123429
45	0xbd4148fb	-0.04718874
46	0x3d096aa9	0.033548985
47	0xbda1930c	-0.07889375
48	0x3cf9d417	0.03049664
49	0x3c84636c	0.01616069
50	0xbc9b88cb	-0.018986126
51	0x3b644912	0.0034833592
52	0xbd8aebfd	-0.067832924
53	0xbe0e4a18	-0.13895452
54	0xbdc35eaa	-0.0953954
55	0x3da7b063	0.0818794
56	0x3dee18bb	0.11625811
57	0xbda51dfa	-0.08062358
58	0x3d8f30d6	0.069917366
59	0xbd80c563	-0.062876485
60	0xbdb0eb39	-0.08638615
61	0xbdb7e0f0	-0.0897845
62	0xbd4f96d2	-0.050680943
63	0x3d6e5a82	0.058191784
64	0xbda3a089	-0.07989604
65	0xbd06df8f	-0.032928046
66	0xbdbaa849	-0.09114129
67	0xbda52453	-0.08063569
68	0xbdbc8073	-0.09204187
69	0x3c0f6e4e	0.008754326
70	0xbd992bd5	-0.074790634
71	0xbda9375f	-0.08262514
72	0xbd924034	-0.07141152
73	0x3dec44b3	0.11536541
74	0xbd23c8fe	-0.039986603
75	0x3de1496f	0.110003345
76	0x3d7cfc56	0.061764084
77	0x3dbd3ba5	0.09239892
78	0x3de6f003	0.11276247
79	0x3de4f1e1	0.11178947
80	0xbbf30e68	-0.007417489
81	0x3d39fc78	0.04540679
82	0xbc36fb92	-0.0111683775
83	0x3da849cc	0.08217201
84	0xbd68e605	-0.05685999
85	0x3dd5add9	0.104335494
86	0xbdcc32ba	-0.09970613
87	0xbdb8e6dc	-0.09028408
88	0x3db4e123	0.08832004
89	0x3a2e6500	0.00066526234
90	0xbd3381db	-0.04382501
91	0x3d8c2356	0.06842677
92	0x3c5a25e7	0.013314701
93	0xbdf32a29	-0.11873276
94	0xbcdd7c40	-0.027036786
95	0xbd0ca57c	-0.034337506
96	0x3d4a74c4	0.049427763
97	0x3d85a2f3	0.06525221
98	0xbd1122aa	-0.03543345
99	0x3e0009d2	0.12503746
100	0x3de92fd0	0.11386073
101	0x3c3b885d	0.011446086
102	0x3dde7780	0.108626366
103	0xbdce3131	-0.10067976
104	0xbce73f49	-0.028228419
105	0x3dcf608c	0.10125837
106	0x3d48d1f3	0.04902835
107	0xbc61eeee	-0.013789875
108	0x3d278284	0.040895954
109	0xbd7796d0	-0.06044656
110	0xbcbb69d4	-0.022877611
111	0xbb88dbbd	-0.0041765855
112	0x3d5b0447	0.053470876
113	0xbd1e9ca1	-0.03872359
114	0xbd85a45c	-0.0652549
115	0xbc82fd1c	-0.015989833
116	0x3dbae3a3	0.091254495
117	0xbcdf704f	-0.027275233
118	0x3dcacd03	0.09902384
119	0x3c3d2026	0.011543309
120	0x3c287008	0.010280617
121	0xbb9db41c	-0.0048127305
122	0x3da0fa48	0.07860237
123	0x3da660b4	0.081239134
124	0xbdc20970	-0.09474456
125	0x3dbc4bce	0.09194146
126	0xbdbcade0	-0.092128515
127	0x3d373e04	0.044736877
128	0x3d500ca4	0.050793305
129	0x3cba5c01	0.022748949
130	0x3a94409f	0.0011310762
131	0x3c6ccfda	0.014453853
132	0x3ccc39f5	0.02492998
133	0x3d9a886b	0.07545551
134	0xbca05290	-0.019570619
135	0xbdc9475a	-0.09828062
136	0x3de92730	0.113844275
137	0x3e06ac53	0.13151674
138	0xbc9ef58a	-0.019404192
139	0x3c152406	0.009102827
140	0x3d21272b	0.039343994
141	0x3d6b1d0f	0.05740076
142	0x3da250b6	0.07925551
143	0xbda4f31b	-0.08054181
144	0xbdad3107	-0.08456617
145	0xbdd05db5	-0.10174123
146	0xbd90a2f3	-0.0706233
147	0x3dde8e0c	0.10866937
148	0xba6d7c49	-0.00090593525
149	0xbd5c08c3	-0.053719293
150	0xbdae22ac	-0.08502707
151	0xbdcda3eb	-0.100410305
152	0x3db5a596	0.08869474
153	0xbc3e2f9f	-0.011608033
154	0xbd1c5d20	-0.03817475
155	0xbdb16004	-0.08660892
156	0x3dd1c4d7	0.10242622
157	0x3ca8f890	0.020626336
158	0xbc55aed8	-0.013042174
159	0xbbfe6901	-0.0077639823
160	0x3d29d5ac	0.04146354
161	0x3d702be4	0.058635607
162	0x3e015e5f	0.12633656
163	0x3d38513e	0.044999354
164	0xbc8b1ca6	-0.016981434
165	0x3d70a0f4	0.058747247
166	0x3dc06996	0.09395139
167	0x3cfecb18	0.031102702
168	0xbe77da9b	-0.24204485
169	0x3cd637c4	0.026149638
170	0xbd47f398	-0.048816293
171	0x3c5c73b3	0.013455319
172	0x3cd4bf0c	0.025970004
173	0xbd1d4358	-0.038394302
174	0x3c8d1af9	0.017224776
175	0x3d8f7930	0.070055366
176	0xbe01b9a7	-0.12668477
177	0xbd7a7755	-0.06114896
178	0xbc99f06a	-0.018791396
179	0x3d882625	0.066479005
180	0x3d78ea94	0.060770586
181	0xbe0ca167	-0.13733445
182	0xbd1a4be9	-0.03767005
183	0x3cc526d5	0.024066368
184	0x3d1ec5f7	0.038763013
185	0xbdc41fda	-0.09576388
186	0xbe88d7ed	-0.26727238
187	0x3b879f1d	0.004138841
188	0xbe0e4be9	-0.13896145
189	0x3d9acd69	0.0755871
190	0x3d50c426	0.05096831
191	0x3ce5dc0e	0.028059032
192	0xbd37df8c	-0.044890925
193	0x3d5fa86a	0.05460397
194	0xbcb080e5	-0.021545837
195	0xbe0737e8	-0.1320492
196	0xbe4c41d5	-0.19946988
197	0xbdb78493	-0.089608334
198	0xbdb0dcaf	-0.08635842
199	0x3a1004a1	0.0005493854
200	0xbceecfac	-0.02915176
201	0xbd837699	-0.06419105
202	0xbdf779df	-0.12083792
203	0xbc4db8b7	-0.0125562465
204	0x3d93a75d	0.072096564
205	0xbccbb102	-0.024864677
206	0xbdb97a8c	-0.09056577
207	0xbdff10d5	-0.12454382
208	0x3ce21f5d	0.027602846
209	0x3db93056	0.090424225
210	0xbbdbac43	-0.006703885
211	0x3db59844	0.08866933
212	0xbd3fa4cd	-0.046788026
213	0xbb61a262	-0.0034429063
214	0xbb0d8843	-0.002159611
215	0xbc1c44da	-0.0095379
216	0xbd8f589f	-0.06999325
217	0xbd6de391	-0.058078352
218	0x3af9e9a2	0.001906682
219	0x3dc08be4	0.09401682
220	0xbd90caac	-0.070699066
221	0xbe571952	-0.21005753
222	0x3d02579c	0.031821832
223	0xbd9e966a	-0.07743533
224	0x3b75d2d1	0.003750969
225	0xbe280602	-0.16408542
226	0xbc9ab2e1	-0.018884124
227	0x3d535302	0.051592834
228	0xbd12ac26	-0.035808705
229	0xbd38232d	-0.04495542
230	0x3dbac02d	0.09118686
231	0xbc537177	-0.01290547
232	0x3d0eddfb	0.034879666
233	0xbcec435c	-0.028840713
234	0x3d8b42cc	0.0679985
235	0xbdbb0a47	-0.091328196
236	0xbd568786	-0.05237534
237	0xbcb42509	-0.021990316
238	0x3db63dd7	0.08898514
239	0x3d14968f	0.036276396
240	0x3aa925c0	0.0012904927
241	0xb9d80106	-0.00041199493
242	0x3d138144	0.03601195
243	0xbde545fe	-0.111949906
244	0xbceb1078	-0.028694376
245	0xbe4578f8	-0.19284427
246	0xbd42d2e4	-0.047564402
247	0x3c4edbdc	0.012625661
248	0xbdf57669	-0.119854756
249	0xbe003e3f	-0.12523745
250	0xbdf4e12b	-0.1195701
251	0x3d986858	0.07441777
252	0x3d8f4482	0.06995489
253	0xbd56f2d3	-0.05247767
254	0x3d5be2da	0.05368314
255	0x3dc67ee1	0.09692169

fc3.bias f4 [10]
0	0xbccd892a	-0.025089819
1	0x3c4f02e0	0.012634963
2	0xbdf32592	-0.118724
3	0xbbdb3542	-0.0066896984
4	0xbd1d7ac5	-0.03844716
5	0x3c98c3bd	0.018648023
6	0x3c4e5c7b	0.012595291
7	0x3c70b65c	0.014691915
8	0xbd8fbb20	-0.07018113
9	0xbdb59c06	-0.0886765
