lenet_test/Lenet4.pth (torch, 488127 bytes, 10 tensors)

conv1.weight f4 [16, 3, 5, 5]
00000000: fa69 eb3d 0eeb 2ebd e447 1abe cc44 2ebe
00000010: bb02 06be 852b fc3d 434b ec3d 91e4 f93c
00000020: 6e0f fbbd ca0c 3cbd 4a29 413e 64d3 c43d
00000030: 951f fc3d ba51 0e3d 1e72 e2bc 9068 443d
00000040: 80dc d83d 6b1c e3bd 460d e4bd aafd a4bd
00000050: 515c 4a3e 09f6 39bd 3241 2a3d 5027 1dbe
00000060: edb3 b9bd 45b6 e63d 8a4c 7c3c 0b6f 82bd
00000070: d1c7 33be dd0a ccbc 8c12 083e af6b a83d
00000080: d6a5 083d fb92 b63c c4cb 9dbd cb9e 4c3e
00000090: ba1d 9a3d 6bd2 873d 4512 febd e2b9 babb
000000a0: a334 963b 66c3 aabd 8c75 aebd 4c9d 33bd
000000b0: 27ba c8bd 8165 153e 4858 ebbb ab26 e13c
000000c0: 626c 24be b230 20be dc4d 0b3e 63b5 2bbc
000000d0: 272e 93bc 3959 2abd 5568 08be 34f7 ddbb
000000e0: a4e7 093e ff63 5abd 5b1b dabb c970 1ebd
000000f0: dce0 5b3d 65fa 0b3d 36e8 d8bc 760f c2bd
00000100: 8411 7bbd a81c a83d 85e2 373d da93 ffbc
00000110: e65c f9bc 048a 9ebd bd19 013e 35c2 413e
00000120: 82f5 773d 390d d73b 34e1 86bc 527c 693d
00000130: 457f c93c 66dc 3ebd 5b74 9c3c e65c bfbd
00000140: 2f90 f7bc ff80 9b3d da95 d7bb a000 48bd
00000150: fe95 863c 673e 473d ab61 353d 9983 1dbe
00000160: 5048 e4bc 961b 8d3d 6d24 203d 586f a9bc
00000170: a3c1 f9bd 33f6 52bc 8f1d 4d3d 1302 ea3d
00000180: ebca be3d 6165 cf3c 7b60 99ba cc8f ab3d
00000190: 4220 8d3d cfc1 893d 3e37 36bd 4ffb 153d
000001a0: 51b0 3cbd 22e9 01bd b797 b8bd 7845 02be
000001b0: 826d aebd 0d9d 62bd cda9 f13c c0cd ddbd
000001c0: 369b b7bd 8b12 d7bc 56b4 3f3c 1d02 2d3e
000001d0: 77e6 6bbd 7edc a0bd b7ae bbbd 3c49 2bbd
000001e0: 1082 3b3e c850 3e3d 9e5b 133e d236 113e
000001f0: 599f abbd d5ac de3d 1067 8fbd 4f75 abbd
00000200: d2b5 d0bd 7e6b 94bd 1de6 733c 0565 f63d
00000210: a982 6fbd d7b1 c8bd 33c7 ec3c c99c 71bb
00000220: 75f3 f23d d3d1 66bc 7c6e 063d b739 f1bd
00000230: f090 153d 0949 df3d 13b1 d13d 57c2 9fbd
00000240: 41a3 dabd fb72 a63d 479f 3c3e 313b ee3d
00000250: 3803 053e 450d 1b3d f554 5d3d 2d1b 18bd
00000260: b1b5 4dbd 45b4 c93c 7d89 9eba 53e5 dcbd
00000270: 0c41 6f3d cab6 99bc 6bda f23d 0052 873d
00000280: 22c7 2cbd d97f db3d b856 80bd b676 223e
00000290: dcaa 2e3e 271b a9bd 564c a13d f05d a93d
000002a0: a04f 323e 9e86 e33d b160 893c 9c49 05be
000002b0: e7f1 5dbd 35fa a4bc 0219 7a3d c02a 823d
000002c0: d1cd aa3b aa76 d1bd 7b48 ea3d 5088 2abc
000002d0: 6a31 a5bd f5e0 9abc 596c 9bbd a4c3 993c
000002e0: 7eef 113e e99c e03d ac32 ddbd b3da 3b3d
000002f0: b2ad 883c fa65 183e 8685 e1bd 1988 b93d
00000300: f55a 4abd 1b3d 2c3e a6b9 c13d 4c05 07be
00000310: 9ae1 0abd e516 fabb d8ec 953d 6746 073e
00000320: 8e9a 0a3d 87d8 2bbd 0ba6 913d edc5 153d
00000330: 1db1 2dbd 9397 0abe 41fe bcbb ca28 07be
00000340: 79e8 5cbb 02fe 103e 58de ffbb 36aa ddbd
00000350: e6f2 25bd 7ac5 8b3d 0d17 a33d 1d7a debd
00000360: d215 88bc 5cb5 08be 5207 32ba fcd7 18bd
00000370: e8f8 6ebd 0000 17be c4ce 3d3d 23b0 0b3d
00000380: 5944 5dbd a42f 8c3c ebbd 013e 6ceb 0fbd
00000390: 08d0 df3d 39ae 203e 8436 1f3d 75e4 233e
000003a0: 65e7 e83d c475 973c a5b8 26bd 8fc8 c6bd
000003b0: 1b3b cd3b 26c0 9dbd 78b5 73bc 62d6 47bd
000003c0: f9e8 6bbd e2a0 67bd b127 41be e3d6 08bd
000003d0: ae93 be3c e184 9e3d 50ef 533d 2960 d8bc
000003e0: c595 603d d2c0 ba3d 9e5c 633d 40e6 d53c
000003f0: ba48 a7bc 0237 81bc 8348 163c 7c13 323e
0.11494823 -0.042704634 -0.15066487 -0.17018431 -0.13086979 0.12312988 0.115377925 0.030504497
-0.12258802 -0.045910634 0.18863407 0.09610632 0.12310711 0.03474591 -0.027642306 0.04795128
0.10588932 -0.11089405 -0.11135344 -0.08056195 0.19761778 -0.045400653 0.04156608 -0.15347028
-0.09067521 0.11265234 0.015399108 -0.06368836 -0.17556693 -0.024907524 0.13288325 0.08223664
0.03336128 0.022286883 -0.07704881 0.1998245 0.07525201 0.06631931 -0.124058284 -0.0056984285
0.0045839115 -0.083380505 -0.08518514 -0.043851182 -0.09801131 0.14589502 -0.007182155 0.027484259
-0.1605697 -0.15643576 0.1360392 -0.010480258 -0.017966343 -0.041588996 -0.1332105 -0.0067738537
0.1346727 -0.05331802 -0.006656093 -0.03868178 0.05368124 0.03417434 -0.026477914 -0.09475605
-0.061296 0.08208591 0.04489376 -0.03119843 -0.030439805 -0.07741168 0.12607475 0.1892174
0.06053687 0.0065628556 -0.016464807 0.057003327 0.02459682 -0.046596907 0.019098451 -0.09343891
-0.03022012 0.075929634 -0.006579143 -0.04882872 0.016428944 0.048643496 0.044282597 -0.15382232
-0.027866513 0.06890027 0.03909724 -0.020682976 -0.121951364 -0.012876081 0.050077017 0.11426177
0.09316047 0.025316896 -0.0011701727 0.083770365 0.06890918 0.06726419 -0.044486277 0.03661662
-0.046066586 -0.031716473 -0.09013312 -0.12721813 -0.08516981 -0.055325557 0.029499913 -0.10830259
-0.08965151 -0.02625396 0.01170071 0.16895337 -0.057592835 -0.078545555 -0.091641836 -0.04181789
0.18311334 0.046463758 0.14390418 0.14181069 -0.083800025 0.10872809 -0.070020795 -0.08371984
-0.101909295 -0.07247065 0.014886406 0.12030987 -0.058474217 -0.09799545 0.02890358 -0.0036867133
0.11862842 -0.014088112 0.03282021 -0.11778586 0.036515176 0.10902602 0.10238852 -0.07800739
-0.106756695 0.081273995 0.18420134 0.116323836 0.12989509 0.03785445 0.0540361 -0.03713529
-0.050222103 0.024622092 -0.0012095418 -0.107859276 0.058411643 -0.018763918 0.11858066 0.06607437
-0.042182095 0.107177444 -0.0626654 0.15865597 0.17057365 -0.08257132 0.07875888 0.0826987
0.17413187 0.111096606 0.016769739 -0.13016361 -0.054185774 -0.02013884 0.061059006 0.0635581
0.0052125235 -0.102277115 0.11439606 -0.010408476 -0.080660656 -0.018906096 -0.07589025 0.018770047
0.14251515 0.10967428 -0.108006805 0.045862865 0.016684387 0.14882651 -0.11011796 0.09059162
-0.04940315 0.16820185 0.09459238 -0.13185614 -0.033906557 -0.007632124 0.07320565 0.1321045
0.0338388 -0.041954543 0.07111748 0.03656571 -0.042405237 -0.13534383 -0.005767614 -0.13199154
-0.00337079 0.14159396 -0.007808488 -0.10823481 -0.04051485 0.06824775 0.07963381 -0.10863135
-0.016611967 -0.13350433 -0.0006791252 -0.037315354 -0.058342844 -0.14746094 0.046339765 0.034103524
-0.05402026 0.01711256 0.12670104 -0.035136625 0.10928351 0.1569146 0.03887035 0.16005118
0.1137226 0.018488772 -0.040703434 -0.09706222 0.0062631494 -0.07702665 -0.0148748085 -0.048788436
-0.057595227 -0.056549914 -0.18862797 -0.033408057 0.023263779 0.077401884 0.051741898 -0.02641304
0.05483033 0.09118809 0.05550825 0.026110768 -0.02042042 -0.0157733 0.009172562 0.17390245

conv1.bias f4 [16]
00000000: bc21 c23c 56b7 4c3d ee27 44bd 7809 38bd
00000010: b9a7 e0bd 838a 44bd 9b41 dd3d d60a 15be
00000020: 14a1 93bd 7880 04be 9b6a 143d 04cc 10bd
00000030: 31d7 ce3c 19fa 93bd f62e 31bd bbeb 21bc
0.023697726 0.04997953 -0.047889642 -0.044930905 -0.109694906 -0.047983658 0.10803529 -0.14554915
-0.072084576 -0.12939632 0.03623448 -0.035350814 0.025249096 -0.07225437 -0.043257676 -0.009882863

conv2.weight f4 [32, 16, 5, 5]
00000000: b735 6c3d a953 44bd ea82 88bd 707c 1cbd
00000010: f6e7 0dbe b752 8f3d cfbf 753c b5f5 6f3d
00000020: 5b7f a03d 5752 b83b f27b 983c 3ea2 c2bd
00000030: 1ef7 483d fc6e 2c3b 31ad 77bc 4b11 10be
00000040: d7c7 efbd 8c3b d7bd cb7e dcbb e274 6dbd
00000050: 19f4 1cbe aa2a 1ebe 8591 ecbd c099 b1bd
00000060: 1ca6 a0bd 5489 55bd b493 833d 872a 053d
00000070: 39ec eabb 2d5d 25bd 740f d1bd 2e41 34bd
00000080: 139f 4cbc 9458 223d 696f 1abd 732a 08be
00000090: eedb 8abc f4b9 6abc 3834 3b3d 45f6 293d
000000a0: 28a0 e2bc 1c84 6dbc 2564 e9bc 3f45 07bd
000000b0: 5ffa e9bd 44d8 6a3c bfd9 343d 8c0c 88bd
000000c0: c93c aabd 5064 04be a424 32bd 6192 6e3d
000000d0: 9863 8e3d 542a 4d3d a95a 19bd 2a76 8b3d
000000e0: f81d 033e 4231 423d 3f19 e6bc 0195 a13c
000000f0: b072 9f3d 4a20 103e 9ff0 28bc b0b8 a2bd
00000100: ead7 e6bd 9fca d73d 83c9 fa3d 77b8 103d
00000110: 2312 86bd 8805 04be 86a2 ed3b c871 a13d
00000120: e505 b3bd 415e aebd 391b 93bd 8d49 d33c
00000130: 15cb 303d 85c1 843d 0a56 aebb 3bf1 69bc
00000140: e8ee 9e3d 6835 b13d 2df7 e53d b412 983d
00000150: 34c0 4a3d b65a 5c3d 8999 043d 89f0 96bd
00000160: 03d0 8fbd 3321 93bc d22e a2bd 0cb1 bcbd
00000170: 7a91 bbbd b7d2 bcbd b619 adbd ffcb eabd
00000180: 345a 59bd 08e5 fcbd 3229 9dbd d7ee e9bd
00000190: 86b0 c63d 00b9 7c3e 53d5 833e aba3 3a3e
000001a0: 39a7 243e a194 4f3d 6ac8 923e 2d7a 593e
000001b0: 2685 f53c 6acf b83d 71c8 513e 9677 b03e
000001c0: 9176 403e b844 753d 888d b33d 99c0 8c3e
000001d0: ecda 623e d1b5 47bd 7c04 bebd a4cb 0cbe
000001e0: 80a8 f33d 196a 5c3d 0fe0 67be b067 3cbe
000001f0: 9229 08be 8109 b8bd c776 60bd f2c5 e8bd
00000200: df3d 1bbc 17d9 7f3d c845 23be c3ce ccbd
00000210: 14e0 a0bd b757 8ebd 2dcd 513c 1d07 56be
00000220: fb73 42be a2ab 3abd 48b6 17bc 084c 913c
00000230: bd87 e7bd dbbf 52bd a7ec b5bb eaa7 ce3d
00000240: 5b85 af3d ef6a 1ebe ef11 29bc 690a 67bb
00000250: 44ec 503d 4154 dd3d cbd8 04be 4bc1 d2bd
00000260: 00de 9ebc 1c4a 1abb 9684 a63d ba13 bebd
00000270: 28f4 d2bd e01c 80bd df62 6bbd 240e 693d
00000280: 734d 9dbd 887b 1cbd f835 b63c e6a6 18bd
00000290: 6c47 883d a54c aebb 2d92 103d 21d0 a93d
000002a0: 7589 c6ba 273a 103e f88b 2ebb 4df8 793d
000002b0: d066 843a 516e 2a3d 1759 2a3d d9fd b13d
000002c0: ae28 073c 462b 92bb 3ac0 8dbc b042 9fbd
000002d0: f147 203e 6ce4 473e a040 033e 9748 263e
000002e0: 8a9b ec3d a3d2 863d f797 903c 41ff 9c3d
000002f0: aef8 00bd 1031 48bd c1ff 2bbd ae55 11bc
00000300: c3ca ad3c 84fb e1bc 08ed 19be dad6 27be
00000310: 86be 43be 58b3 89bd dbc9 03be 724a e3bd
00000320: 3f25 483c c546 513d 8642 973d 7f19 db3c
00000330: 8f4c c0bc 5a84 cd3d 647b 7a3d b27a 6d3d
00000340: bb6f a03d 5011 3bbc 2cf2 023e baa0 333e
00000350: 7305 cd3d fc09 923d 272c 8f3c 7711 e8bb
00000360: be0d 7a3c b96f 6d3d 3f34 a5bc 8d27 c6bd
00000370: eabc 87bd e8dc 9fbd 3868 fdbc f6b3 f3bd
00000380: 8873 36be a1c4 0ebe f185 01be 8c9c c1bc
00000390: e9c7 1b39 12b1 f8bc fb90 e4bd ddfc a33b
000003a0: 2b82 97bc 5acc 2f3b 4175 323d c44e afbd
000003b0: 0245 88bc ebd3 623d 4574 89bb d409 c43b
000003c0: bd70 05be 50e5 7abd 985f 773c 1ddf 113d
000003d0: 37b5 903d b51d d6bd 6ff4 b1bc 315d 24bc
000003e0: 80f8 873d e6ed c4ba 90b0 123d df0d f93d
000003f0: a1e7 343e 9139 8c3d 2b1b a33d 6fee 2e3d
0.057668414 -0.047931347 -0.06665595 -0.03820461 -0.13858017 0.069981985 0.014999344 0.058583934
0.07836791 0.00562505 0.01861379 -0.095036015 0.049063794 0.002631127 -0.015116976 -0.14069097
-0.11708038 -0.105094045 -0.006728982 -0.057972796 -0.15327491 -0.15445963 -0.11551193 -0.086719036
-0.07844183 -0.05213292 0.064246565 0.03251126 -0.007169273 -0.040372062 -0.102080256 -0.044007473
-0.012489098 0.039635256 -0.037703905 -0.13297443 -0.016950574 -0.014326561 0.045704097 0.041494627
-0.02766426 -0.014496829 -0.028490135 -0.033025023 -0.114247076 0.014333788 0.04415297 -0.06643018
-0.08312375 -0.12928891 -0.043491974 0.058245067 0.0695259 0.050089195 -0.037439976 0.068096474
0.12804401 0.047410257 -0.02808821 0.01972437 0.07785547 0.14074817 -0.010311275 -0.079453826
-0.11271651 0.10536694 0.122454666 0.03533217 -0.06546428 -0.12892735 0.0072520403 0.0788303
-0.08741359 -0.08514071 -0.07182927 0.025791908 0.043162424 0.064822234 -0.0053203152 -0.014278705
0.077604115 0.086527646 0.11228786 0.07425442 0.049499705 0.053797446 0.032372985 -0.07370097
-0.07022097 -0.017960167 -0.079190865 -0.092134565 -0.09158607 -0.09219878 -0.084521696 -0.114646904
-0.05306454 -0.12348372 -0.07673873 -0.11422508 0.09701638 0.24679947 0.2574869 0.18226497
0.16079415 0.050678853 0.2866853 0.21238013 0.029970717 0.09023936 0.20486619 0.34466237
0.1879523 0.05987999 0.08767229 0.2749069 0.22153825 -0.048757378 -0.09278199 -0.13749558
0.11897373 0.05381212 -0.22644065 -0.18398929 -0.13297108 -0.08986188 -0.054800775 -0.1136588
-0.0094752 0.062462892 -0.15944588 -0.10000374 -0.078552395 -0.06950324 0.012805265 -0.20901151
-0.18989556 -0.045573838 -0.009259768 0.01773645 -0.11305187 -0.0514525 -0.005551893 0.10090621
0.085703574 -0.1547048 -0.010319217 -0.0035254008 0.05100657 0.10807086 -0.12973325 -0.10290774
-0.019392967 -0.0023542708 0.081307575 -0.09281106 -0.10300475 -0.062555075 -0.057467338 0.05689825
-0.07680788 -0.038203746 0.022242531 -0.03726854 0.06654248 -0.0053191953 0.035295654 0.082916506
-0.0015147167 0.14084683 -0.002663372 0.061027814 0.0010101441 0.041609112 0.04158887 0.08690996
0.008249445 -0.004460725 -0.017303575 -0.077763915 0.15652443 0.1952073 0.12817621 0.16238628
0.11553104 0.065831445 0.017650587 0.07665873 -0.03148716 -0.048874915 -0.041991953 -0.008870525
0.021214848 -0.027585752 -0.15031826 -0.16390553 -0.19115648 -0.0672366 -0.1286997 -0.11098184
0.012215911 0.05109288 0.07385735 0.026745556 -0.023474006 0.1003501 0.06115283 0.05797834
0.07833811 -0.011417702 0.12787694 0.17541781 0.10010805 0.071308106 0.017477108 -0.00708216
0.015262065 0.057967875 -0.020166514 -0.096755125 -0.066278294 -0.078058064 -0.030933484 -0.11899559
-0.17817509 -0.13942195 -0.12648751 -0.023634218 0.00014856424 -0.030357871 -0.11160465 0.005004509
-0.018494686 0.0026824684 0.043568853 -0.08559945 -0.016634468 0.055377882 -0.0041947686 0.005982617
-0.13031287 -0.061253846 0.015098475 0.035613168 0.07065814 -0.10454885 -0.021723 -0.010031984
0.066391945 -0.0015024513 0.035812914 0.12160849 0.17666484 0.068469174 0.07964166 0.042707857

conv2.bias f4 [32]
00000000: 4ac4 873c 9ec9 cbbb a795 69bd 3441 adbd
00000010: f5ad 3b3d f495 72bd 5937 67bd dd04 c93c
00000020: f5b8 d43d 6173 43bc 85bc b9bc 9b99 353d
00000030: 9a01 87bc a74f 253d b9c8 c4bc 2303 9ebd
00000040: edd0 3c3d b2f7 27bd 824f 85bc 6df9 93bd
00000050: 909f 92bd e79d 4fbd 1f07 26bd 59ae 853c
00000060: 156a 17bd 9981 863d 518b a1bc bf8f 643d
00000070: 5ae9 11ba d426 373d b9dd 753d 6ca5 d5bc
0.01657309 -0.006219103 -0.057027485 -0.08459702 0.045820195 -0.059225038 -0.056449268 0.024538452
0.1038684 -0.011929364 -0.0226729 0.044335943 -0.016480256 0.040359166 -0.024021493 -0.07715442
0.046097685 -0.041007705 -0.016273264 -0.072253086 -0.071593404 -0.050687697 -0.040534135 0.016318487
-0.036966402 0.065676875 -0.019719752 0.05580115 -0.0005566083 0.044714764 0.060025904 -0.026079856

fc1.weight f4 [120, 800]
00000000: c474 81bc f721 8abd 5dc8 afbd 1639 89bd
00000010: ae78 e83b 7f31 7d3d 6f84 d13c 40fb ea3a
00000020: abc4 a93d 44f5 bc3d 86cc 2bbb 5864 c8bc
00000030: 83bf abbd 549d 02ba 25f6 813c 3be2 c23c
00000040: 01c7 e5bc c56e 6bbd 33e5 adbd 58cc a3bb
00000050: 6e3c 0d3e 9833 f63d eab7 253d 18f8 b73d
00000060: 02cd bf3d 3c15 633c ac44 d5bc 882f 03bc
00000070: 14d3 823c fb6e 2b3d 7209 51bc 39dd 67bb
00000080: 0887 95bc bebf 17bc f926 31bc de3b 2e3c
00000090: bdf6 13bc fee5 c33c 50da 373c 117e 0f3d
000000a0: b980 483c fad9 173d e635 143d 4cd2 7bbc
000000b0: 2640 afba 8e50 c03c 8477 eabc 6472 85bc
000000c0: 8ac0 d3bc 1ffc 693c 9677 fb3c 26b7 d63c
000000d0: d0fe 05bc 81db 0f3d d073 473d 05ae 2f3d
000000e0: 5b98 163d 3b9c b5bc 37fe 78bc 80fe dab9
000000f0: 6273 ccbc 07f5 8b3c 263d a4bc b268 c23c
00000100: 44ea db3c 1c51 54bd de90 a5bc 7224 ab3c
00000110: 9d09 06bc d751 adbc 563e 2a3d 92c1 e83c
00000120: ed4e c9bc 8861 b33c 19cc 003d f3d7 cdbc
00000130: 5d26 8b3c a9e9 0cbd 39d4 3ebd fff8 f03c
00000140: 504d adbb e136 863b d4b2 92bc ead6 493c
00000150: 8d81 36bc 1071 02bd ec73 5b3c 9b52 e93b
00000160: 7dcd 923c 0b80 6e3c 07aa 40bc 1a15 d8bc
00000170: 3073 0b3b bad2 ce3b 993e c03c 9900 86bb
00000180: b2ee ebbc de57 40bc f5a8 90bc c8fa d63c
00000190: 1e54 1a3d a215 723d 3f69 723d 164a 763d
000001a0: ecac 113c f548 7b3d 24e6 263d 5280 b13a
000001b0: 952b f13c 5aee 183d 969d 1f3d 075a c43c
000001c0: 49cf a83b ebee 353d c8d9 283d 0135 d93a
000001d0: c81f 243d 4762 353d 3f38 adbc ee73 e5bc
000001e0: 2790 c3bc 6025 423c 10b6 f73a 6973 1fbc
000001f0: f3ef 373c e2e6 b53d 30d5 fd3c 804c 07bd
00000200: d8f5 5e3c 58f9 a63d 2863 2a3d 4aab 2cbd
00000210: c18a a0bc d3b5 343c 9a29 463d ccf2 983c
00000220: 209f 9ebd b637 78bd 5bd6 9dbd fb76 2cbd
00000230: 4a77 393d 8e55 1dbd 2fc2 cfbc cf04 07bd
00000240: f81e 453d 5ed7 cc3d d5f9 0fbc 1d99 f8bc
00000250: da99 40bc 2fb1 1c3d c9c6 f33c e5e4 5cbb
00000260: b06b 30bd b259 96bd e848 8eba e07a a13c
00000270: edef 24bd 8225 6cbc dbb4 edbc 5225 6e3c
00000280: 0270 3b3b 9aeb 42bd b567 12bd 3d4b 8bbd
00000290: f74f 403a cd42 3ebc 5dc6 853b b10c b0bc
000002a0: 4fea 62bd 70e2 cf3c cb93 c93d dcaa a43d
000002b0: 0700 5b3c 5ad6 9b3c 4dd4 013d 9378 b4bc
000002c0: 3558 713c a0ac 0d3d 8a29 3abc 5db4 d63c
000002d0: 80cd 053d 6b08 803d 36c6 b0ba 813b 04bd
000002e0: ba3f d9bc 106b 273d ccfd 323d 504b 16bd
000002f0: 6a52 5bbd 19d0 7abc e196 873d 0087 b03d
00000300: e922 843d 6cc1 69bc 93d6 763d 4d75 8fbc
00000310: 661f ef3c 9344 f9bc ee49 eb3b 5b59 103d
00000320: 5f11 1a3d b212 8e3d a60c 933c 71bc 983c
00000330: b3ee a6bc a92b 51bb 8e51 b73c e0e2 ac3c
00000340: ffa0 93bc 2af0 863c 8622 6f3d 7c15 ddbb
00000350: bd7a cb3c c952 a13c bcfc 023d a309 b73d
00000360: 580a f63c 05d0 fa3c db54 583d 6083 303d
00000370: e990 013c ebd4 82bd e0db 18bd 4f77 5abb
00000380: 94ea 353b f7d5 623d ec5a 9abc fd07 72bb
00000390: 10f8 1cbd 009c 603d 0f01 b63c 59e0 2dbc
000003a0: d800 50bb 0062 0a3d 76ab 2c3d beef 903c
000003b0: ac29 3abd cbfd 1abd 6065 4bbc d14e 19bd
000003c0: f668 3c3c dd66 3f3b 9f35 0c3c 79d6 a6bc
000003d0: c4de d9bc 5ca9 3d3c c677 d8ba f300 663c
000003e0: 7552 9cbc 876f 1fbc ae49 3cbd 07ea 88bd
000003f0: 11d1 41bd 600a 54bc 72c2 323a ed29 693c
-0.015802749 -0.067447595 -0.08583138 -0.067003414 0.0070944643 0.06181478 0.025575845 0.0017927662
0.082894646 0.09226468 -0.0026214435 -0.02446191 -0.08386137 -0.000498255 0.015864441 0.023789516
-0.028048994 -0.057478685 -0.08490982 -0.004998725 0.13792583 0.120215595 0.040458597 0.08982867
0.09365274 0.013860043 -0.026033722 -0.008006938 0.01596979 0.041853886 -0.0127586 -0.0035379662
-0.018252864 -0.0092620235 -0.010812514 0.010634391 -0.009030995 0.02391338 0.011221483 0.035032336
0.012237721 0.037073113 0.036184214 -0.015369963 -0.0013370558 0.023475911 -0.028621443 -0.016289897
-0.025848646 0.014281302 0.030696671 0.026210379 -0.008178428 0.035121445 0.04869443 0.042890567
0.03676639 -0.022169223 -0.015197328 -0.00041769817 -0.024957363 0.017084612 -0.02004869 0.023731563
0.026845105 -0.051835164 -0.02021068 0.020891402 -0.008181003 -0.021157188 0.041563354 0.028412614
-0.024573768 0.021897092 0.031444643 -0.025127387 0.016986066 -0.034402523 -0.04658911 0.029415606
-0.0052887574 0.0040958975 -0.017907538 0.012319306 -0.011139286 -0.031846106 0.013394337 0.007120443
0.01792025 0.014556895 -0.011759288 -0.02637725 0.0021278374 0.0063117417 0.023467349 -0.0040894267
-0.028800342 -0.011739699 -0.01765869 0.026242629 0.037677877 0.059102662 0.0591824 0.060129248
0.008891325 0.061348874 0.040746823 0.0013542271 0.029439727 0.037336685 0.038968645 0.02396871
0.0051516634 0.044417303 0.041223317 0.0016571583 0.04006937 0.044283178 -0.021144984 -0.028009381
-0.023872448 0.011849731 0.0018898863 -0.009732106 0.011226642 0.08881928 0.030985445 -0.03303194
0.013608418 0.08153027 0.04159847 -0.04215554 -0.019597413 0.011029678 0.048379518 0.018670462
-0.077451944 -0.060600005 -0.07706901 -0.042105656 0.04527978 -0.03841167 -0.025361149 -0.03296357
0.048125237 0.100020155 -0.008787592 -0.030346448 -0.011755431 0.038254913 0.029757874 -0.0033705768
-0.04307145 -0.07341327 -0.0010855468 0.019711912 -0.040267874 -0.014413239 -0.029016903 0.014535265
0.0028600697 -0.04758797 -0.035743434 -0.0680146 0.00073361344 -0.011612606 0.0040824846 -0.021490427
-0.055399235 0.025376529 0.098426424 0.08040401 0.013366706 0.01902311 0.031696606 -0.02203015
0.014730503 0.034588456 -0.011362443 0.02620905 0.032666683 0.062516056 -0.0013486806 -0.03228331
-0.026519645 0.040873587 0.04369907 -0.036692917 -0.053545393 -0.015308403 0.06620575 0.08619499
0.06451971 -0.014267307 0.060263228 -0.017511988 0.029189777 -0.030428207 0.007180444 0.035241466
0.037614223 0.069371596 0.017950367 0.018644543 -0.020377493 -0.0031916893 0.022377755 0.021104276
-0.018021105 0.016471941 0.058382533 -0.006746946 0.0248388 0.019692795 0.031979308 0.08937385
0.03003423 0.03061677 0.0528153 0.04309404 0.007908084 -0.06388267 -0.037319064 -0.0033335274
0.0027758228 0.055379834 -0.018842183 -0.003693103 -0.03832251 0.054836273 0.022217302 -0.010612571
-0.0031738784 0.033784866 0.042155705 0.017692443 -0.045449898 -0.037839692 -0.012414306 -0.03742868
0.011499634 0.0029205598 0.008557706 -0.02036594 -0.02659548 0.011576023 -0.0016515187 0.014038312
-0.019082287 -0.00973118 -0.045968704 -0.06685262 -0.047318522 -0.012941927 0.0006819136 0.014231187

fc1.bias f4 [120]
00000000: 3fc1 c83d 33ae 1dbc 8b76 b53d 75c2 2d3d
00000010: d459 673c ddfd 883c f99d 013e 5dc4 923d
00000020: 09e7 0d3e eb90 4bbc 91bb c23c e3e8 aebc
00000030: 18a1 ab3d 1aec c7bc f848 863d 3406 61bd
00000040: fa27 c43b c731 dcbc 4264 7fbc b275 373b
00000050: ef37 ce3c 1e04 88bc 85c8 7e3d d983 733a
00000060: 150f 08bd d732 513c 4f32 ae3c 69ae 73bc
00000070: 9b6a 5d3d ad52 0abd 0591 0a39 3f03 083c
00000080: 06c5 4d3b a9a4 113d 23c9 3b3c 2f10 ac3c
00000090: 6848 993d f857 aa3d 3fd2 16bd 5891 a83b
000000a0: 0e3c 9d3d 46ff 2cbc c525 163d 1a1e 703c
000000b0: 7417 4b3d a37d 1f3d fb05 af3d add1 82ba
000000c0: 41cd 723c ed07 79bc 0926 92bc 9b7f 253d
000000d0: a1f7 1cbc 16a2 0bbd cf52 053e c789 8f3d
000000e0: cccf 963d e389 743d 1af1 91bc 2dcb a5bc
000000f0: 1ee1 e8bc 342f 723d 4993 e63b 1777 9abc
00000100: faf2 07bc bd3a 933b 8c90 c0bc 1eb4 833c
00000110: 155c 42bd 116a 813d 41cc d83d f3f3 ffbc
00000120: 5c59 cbbc 2dee a0bc 3552 e1bb 35c0 783d
00000130: ac5e de3c 568a a83c e980 87bc 7511 403c
00000140: fd3f 2839 5c10 86bc a32c eabb 47bb 823c
00000150: ee7b e2bb 77a3 3a3c e549 0cbd 6404 bcbc
00000160: ba8a 843d d084 b33d 1394 4d3d fd4d efbc
00000170: 9417 e23b 9dc0 863d 8268 6f3c e2f5 fcbb
00000180: eddf 113c 3874 b73d 488f e43c 9520 bf3c
00000190: 0fbf c7bb 767f 803b b9aa 1ebd b315 683c
000001a0: efdc 1a3d ec7a 7b3c c38c b43c 11c1 af3b
000001b0: 7e06 13bd 2096 c23c 2a25 413c a2d3 a73c
000001c0: eed0 2a3d 158a 12bd 916d 07bd 1abe 18bd
000001d0: dcce f1bc e2eb 18ba a0db 7b3b 0182 5e3d
0.09802484 -0.009624052 0.08860501 0.042421777 0.014120538 0.016722614 0.12657918 0.071663596
0.13857664 -0.012424688 0.02377108 -0.021351283 0.083803356 -0.024404574 0.065568864 -0.054937556
0.005986211 -0.026879204 -0.015587868 0.0027993736 0.025173156 -0.016603526 0.06220295 0.0009289361
-0.03321751 0.012768469 0.021264223 -0.014873126 0.054056745 -0.033770252 0.0001321473 0.008301555
0.0031397953 0.035557423 0.011461529 0.02100381 0.074845135 0.0831756 -0.0368216 0.0051442795
0.0767747 -0.010558909 0.036657114 0.014655614 0.049582914 0.038938176 0.085460626 -0.0009980701
0.014819444 -0.015199644 -0.017840402 0.040404897 -0.009580524 -0.034090124 0.1301987 0.07008701
0.07363853 0.05970181 -0.017815161 -0.020238483 -0.028427657 0.059127048 0.0070366007 -0.018855615
-0.008297676 0.004493086 -0.023506425 0.016077098 -0.047451098 0.06319059 0.10585833 -0.031244254
-0.024822883 -0.019644821 -0.006876255 0.060730178 0.027144752 0.020573776 -0.016540961 0.011722912
0.00016045566 -0.016365223 -0.0071464344 0.015958441 -0.006911746 0.011391512 -0.03425016 -0.022951312
0.064717725 0.08765566 0.050190043 -0.029211992 0.0068997834 0.06579707 0.014612319 -0.007719741
0.008903486 0.08957714 0.027900353 0.023330966 -0.006095774 0.0039214445 -0.038737033 0.01416533
0.037808355 0.015349131 0.022039777 0.0053635915 -0.035894863 0.023753226 0.011788646 0.020486657
0.041703157 -0.035776217 -0.033063475 -0.03729067 -0.029517584 -0.0005833489 0.0038430467 0.0543232

fc2.weight f4 [84, 120]
00000000: ae10 ebbd 63ab 09bc c673 1ebe 4e75 54bd
00000010: 7e69 b3bd b6fd 11bd c62a 17bd a913 e9bd
00000020: be12 0e3d e6c5 53bd 76b0 b8bd 840f b13d
00000030: 1950 f7bd 308b fb3b 8945 a9bd 1512 b83c
00000040: 7949 593d 0e37 493d e087 af3d 63b5 063c
00000050: 92da afbd b0e3 523c 2030 1a3c 4ab2 2ebe
00000060: 4216 afbd 923c ab3d d032 14bc 3dcd 973d
00000070: a642 13bd 2131 9bbd e258 20bd 3890 203c
00000080: 03d9 1cbd 9486 203d e089 eb3b 0019 dbbc
00000090: 4876 b83c d7cc 943d 4b07 b6bd 3338 acbb
000000a0: c7c1 a33d 36dd bdbd 5e11 13bd 483e 753d
000000b0: 515d 78bd b0aa babd b3d5 48bb 34f3 b23d
000000c0: 86cd 1dbe 6818 233d 8695 a9bd cdd2 7bbd
000000d0: 022b e73c 7469 f63c 5261 fd3c ddda a8bd
000000e0: dfab 8f3c 3428 8ebd 98bb 73bd fcec 9c3d
000000f0: 31f0 75bd 04c4 e53c cc2e 973d c4f2 18be
00000100: f4a7 e6bc 3608 a83d dbdd abbd b4ac 573d
00000110: a8ca 193c b7a4 b9bd d622 3c3d 8056 59ba
00000120: d55b dfbd 9869 c7bd 5287 093d df42 223c
00000130: ee18 e2bc ce2e 83bd 4051 f2bb a2de 063d
00000140: 601d 8bbb f893 b63c 834c b1bd 3f61 93bd
00000150: 50bf 80bc 20dc 983c 3ef5 62bd d73b aabd
00000160: 0fa3 efbd 74f7 79bc ba3b 76bc f78e 19be
00000170: ad1e c4bd c6a7 0a3c eb7c 46bd f8a1 c9bc
00000180: 15d8 8f3d 3200 14be e360 843d adb5 c7bd
00000190: a982 4bbd d3da a1bd b4a8 f73c b4ad 963c
000001a0: e4c6 04be f4b1 a3bc 9a48 40bd c8c9 f73c
000001b0: c12d 5fbd 24d6 83bd 94b9 243d ac86 133d
000001c0: 8736 b33c 3fc0 48bd dfc6 69bd b39a 91bd
000001d0: a00c 7ebc ce54 873c 3ef0 acbd 1bb6 933c
000001e0: 7892 c43d c3f5 66bd 801f 553d 2801 f23d
000001f0: e2c0 eb3d 4c10 d9bc 9e00 89bd 90f4 9abd
00000200: d8f6 aa3d abd1 8e3c 0b25 183e d8e8 f4bc
00000210: d0a7 813d 21a4 b2bb a234 b83d 00c3 a93d
00000220: df84 d0bd e271 603d 1ec1 90bd 45de fcbc
00000230: 37a3 773c d123 5abd 7e88 f33d 082e 1dbd
00000240: be85 903d f4a0 1d3d a0ad 033b 3d72 773d
00000250: 832b e33d 210e a73c e5ab a3bd 9105 af3d
00000260: f70a b23d e707 993d ca16 9fbd 67a9 a03d
00000270: b4fc 233d a46d 003c 26d8 16bd 9a65 1bbd
00000280: 7342 043e 7ee8 503d a7bd bd3d b30a 5abc
00000290: 8b7f 063e bd6f 563c 6f6b 093d 3c1a ff3c
000002a0: 6f35 c83c c8ec 91bc e591 cabc 1d0b 91bc
000002b0: 08e3 9ebd 59b6 69bc 4e06 173e 47a5 6f3c
000002c0: 5b88 0b3d d636 43bd a414 bd3d ebdb 303d
000002d0: 1b3a e9bc 6c55 a2bd 70b1 3d3d 25aa 01bd
000002e0: e20a 2b3d 0847 64bd 7308 efbc 9f92 acbd
000002f0: f69b 943d 790e 16ba 6171 1f3d e09d 683b
00000300: 6643 f8ba c6a5 cebd 14d6 7d3d 1bfd c03d
00000310: 2b10 f73b 4840 173c 7e5f 88bd e435 f53c
00000320: f29b 7e3d 5b08 25bd 3af5 7ebd 95d7 953d
00000330: 1270 cf3c fa3a 5abd 28ce 3c3d f277 a03d
00000340: e308 123d 8567 893d 4f12 083e b5f1 ecbd
00000350: 3be7 a6bc a03c 543d 3143 85bd de84 b8bc
00000360: 212b 983c a129 1bbc ecec c2bc ae4d 893d
00000370: 18cf a33c eb2e 1c3d 4ae5 2abd 7f98 afbd
00000380: 5144 42bd 03c7 c63d e99e febc 0e5b dcbc
00000390: eefa 983c fe05 143d 7030 a0bd 4b53 f4bc
000003a0: 7079 fb3d 7cf3 3dbc 0841 fdbc 65e6 30bd
000003b0: 35dd 2bbd 1674 e03b 9b13 5fbd ceed 4e3e
000003c0: 7e64 54bd a80d ffbd 0726 923d 2cbc 28bd
000003d0: 4395 47bd d8f5 45bc 8259 19bd 2dbb 13bd
000003e0: a900 8cbd 74ec a83c 76fb 5dbd 882a 75bc
000003f0: 73f3 cebd dfb3 823d 6309 a3bb fb64 b93a
-0.11477791 -0.008402678 -0.15473852 -0.051869683 -0.087603554 -0.03564235 -0.036906026 -0.11380703
0.034685843 -0.051702403 -0.09018032 0.086455375 -0.12075824 0.0076765046 -0.08265216 0.02246956
0.053048585 0.04912477 0.08570838 0.008221957 -0.08586611 0.012871668 0.009410888 -0.170602
-0.08549167 0.08361162 -0.009045318 0.07412193 -0.035952233 -0.0757773 -0.039147265 0.009800009
-0.038292896 0.039190844 0.007188067 -0.02674532 0.022517338 0.072656326 -0.0888811 -0.005255723
0.079959445 -0.09270708 -0.035905235 0.05987385 -0.06063587 -0.09114587 -0.0030644953 0.087377936
-0.15410432 0.039818197 -0.082804725 -0.061480332 0.02821875 0.03007958 0.030930195 -0.0824487
0.01753801 -0.06941262 -0.059505075 0.07662389 -0.060043518 0.02804757 0.07381973 -0.14936358
-0.028156258 0.08204691 -0.08391925 0.052654937 0.009386696 -0.0906462 0.04593166 -0.00082907826
-0.109061874 -0.09736937 0.033576317 0.009903639 -0.027599778 -0.06405412 -0.0073949397 0.032927163
-0.004245445 0.022287354 -0.086571716 -0.071962826 -0.015716225 0.018659651 -0.055409662 -0.08312195
-0.11701023 -0.015256751 -0.015028888 -0.14995943 -0.095761634 0.008462852 -0.048458975 -0.024613366
0.07023636 -0.144532 0.06463792 -0.09751449 -0.049685154 -0.079030655 0.030231811 0.018393375
-0.12966496 -0.019982316 -0.04694424 0.030247584 -0.054486994 -0.064373285 0.040216044 0.036017105
0.021876587 -0.049011465 -0.057074424 -0.07109585 -0.01550594 0.01651993 -0.0844426 0.01803117
0.09598249 -0.05638672 0.052031994 0.11816627 0.11511399 -0.026497029 -0.06689571 -0.07566178
0.08347863 0.017433962 0.14857881 -0.029896185 0.06330836 -0.0054516946 0.08994414 0.082891464
-0.10181593 0.054796107 -0.07068084 -0.030867705 0.015114597 -0.053256813 0.11891268 -0.038373977
0.07056759 0.038483575 0.0020092502 0.06041168 0.110922836 0.02039248 -0.07991771 0.085459836
0.08693498 0.074722104 -0.077680185 0.07844811 0.04003592 0.00783864 -0.03682723 -0.03793869
0.12915973 0.05100297 0.09264689 -0.013308215 0.13134591 0.013088164 0.033549722 0.03114044
0.024439542 -0.017813101 -0.024727771 -0.017705495 -0.077581465 -0.0142646665 0.14748499 0.0146268075
0.034065586 -0.047659718 0.092324525 0.04317848 -0.02847009 -0.07926449 0.046311796 -0.031656403
0.041758426 -0.055731803 -0.029178834 -0.08426403 0.0725631 -0.00057242025 0.038926486 0.0035494491
-0.0018940985 -0.100902125 0.06197174 0.09423276 0.007539769 0.009231634 -0.06658839 0.029932924
0.06216044 -0.04029117 -0.062245585 0.0731651 0.025321994 -0.0532789 0.046095043 0.07835378
0.035653006 0.06709198 0.13288234 -0.115695395 -0.020373931 0.05181563 -0.06506956 -0.022524294
0.018575253 -0.009470374 -0.023794614 0.06704269 0.019996211 0.038130682 -0.041722573 -0.08574008
-0.047428433 0.09705927 -0.031081634 -0.026898887 0.01867434 0.036138527 -0.07821739 -0.029824873
0.12279022 -0.011593696 -0.030914798 -0.04318847 -0.041959006 0.006849776 -0.054462057 0.20207903
-0.05185365 -0.124537766 0.071361594 -0.04119508 -0.04872633 -0.0120825395 -0.037438877 -0.036067177
-0.068360634 0.020620562 -0.05419489 -0.0149637535 -0.10105028 0.06381964 -0.004975484 0.0014144474

fc2.bias f4 [84]
00000000: 580e e6bd 107f 07bc 6809 a7bd bbdb b5bd
00000010: 30bd 853d e483 18bd fd02 173e 144a cb3c
00000020: ac6e 60bc d302 d6bd 734b ec3c aa2c 8c3d
00000030: 8b38 783d 03c2 dfbd 6bf5 863d 7447 803d
00000040: 4ed0 4dbd e49d 4ebc 5b23 013e 917a b83c
00000050: 0896 273c 1bd4 4abc c230 863d 6b2c a7bd
00000060: 5b5d 953d 288d 57bd cde7 98bd 7578 823d
00000070: 8bfe 183d e7a2 75bb ed5b 433d da84 203e
00000080: f9c2 b83d 9375 e93d 1c72 adbd 3dfc 193e
00000090: 9965 50bd 040a 9dbd 51d0 ea3c d44e 52bd
000000a0: 1846 febd 6ce3 383d 6a59 04bd 69a6 b83c
000000b0: 45db cc3c 1aec ef3d 5fc0 9bbd 1935 4ebd
000000c0: 8664 f73d 0f6e 0d3d 5adf 883c da0f 4b3d
000000d0: 79c2 bc3d 902e cc3c bb3b 093e e4b1 9c3c
000000e0: af08 99bd c984 33bb a6cd 673c 4d06 933d
000000f0: 83bc fd3b 5e82 903c 46a1 fd3c 19d6 2b3e
00000100: 9e80 27bd e918 023d 7ecc 88bd c7de c2bc
00000110: 3279 243e f882 35bc 16ad 833d aced 53bd
00000120: 629a 0f3e 1bcd 01bc f487 a33c 6334 5a3c
00000130: 6fbe c9bb aa9b 053a 0f0c 263c 3e28 3fbd
00000140: 3b09 273d ad48 6e3d a6a8 f5bd 9bf0 fcbd
-0.112332046 -0.00827004 -0.08156091 -0.08879801 0.06530225 -0.037235156 0.14747234 0.024815597
-0.013698261 -0.104497574 0.02884457 0.068444565 0.0606008 -0.10925677 0.065897785 0.062636286
-0.050247483 -0.012610886 0.12611143 0.022519382 0.010228641 -0.012379671 0.065522686 -0.08162769
0.07293197 -0.05262485 -0.074660875 0.063706316 0.037352126 -0.003748113 0.04769509 0.15675679
0.09021563 0.11399379 -0.0846903 0.15037628 -0.05087814 -0.07667926 0.028663786 -0.051344708
-0.12415713 0.04513876 -0.032311834 0.022540288 0.0250069 0.11714955 -0.07605051 -0.050343607
0.1207972 0.03452879 0.016708065 0.049575664 0.0921678 0.024924546 0.13401692 0.019127794
-0.074723594 -0.0027392379 0.0141481515 0.07178936 0.0077434196 0.017640289 0.03096069 0.1678089
-0.040894143 0.031762037 -0.06679629 -0.02378787 0.16061857 -0.011078589 0.06429498 -0.051740333
0.14023736 -0.007922436 0.019962288 0.013318154 -0.0061567347 0.0005096743 0.010134711 -0.046669237
0.040780287 0.058174778 -0.11995058 -0.12350579

fc3.weight f4 [10, 84]
00000000: 2df8 45bd 6870 9d3d aca2 3abd 470e e3bd
00000010: 7d2d c13d 171e fcbc 16ab 27bd c482 f13c
00000020: fa5d 09bd 6945 d63d d435 ecbd bb77 eabc
00000030: 6602 5d3d 07db 19bd 1363 493d 13b7 02be
00000040: a87e 323d cab0 0b3c 5f88 a73b 4f15 d03c
00000050: 3325 c8bd 1c72 dcbc ebb3 023e 9ed8 13bc
00000060: 4ffe eebb 4a84 1c3a 36f8 8cbe df22 9a3d
00000070: d5b9 90bd fb10 9b3d c221 ccbd 9086 80bd
00000080: 5a52 8b3d f926 303c 015d afbd 1135 30bd
00000090: 22e0 c1bd 7acd fd3d 81bb d2bd d0e6 8b3c
000000a0: 260d c9bd 32e2 023d 06dc 22bd f200 e13d
000000b0: 43cd 823b b076 bc3d ad1c 49bd 629d 763d
000000c0: c51a 9ebd 5204 dcbc e6eb 963d 8ff9 c03d
000000d0: a5c6 d5bd 776c ca3c a925 3fbb 35c4 4abc
000000e0: aaa6 5c3d 04d7 0ebe dec3 e73d a5a0 7c3c
000000f0: bd69 afbd 87ec 113c 6d2a 5bbc 2100 0a3d
00000100: db5b a2bd e423 0dbe 3487 443d 6a7e f0bd
00000110: e12a b53d ca27 8c3d f675 51bd 3796 af3c
00000120: 2449 5f3d fa5a 94bd 5582 ad3d 0748 b83d
00000130: 85db 33be 273c 0ebd 2620 72bd 6600 e5bd
00000140: bcc9 f53d 9f2a 05bd 647d c13c 4e75 9abc
00000150: 5ad7 2c3d 2c27 a33d bb24 193c c2ae 9e3b
00000160: 9a3d b7bd 49d6 f0bd 7155 a93d 6eb1 8e3c
00000170: d8e4 aa3a 07d2 9cbb 4b1b 88bd 6ce9 e3bb
00000180: d0de 743c eb91 a13d 54fb 083d 320e e9bd
00000190: ba1f cabc 355b cabd 769a b63d 5f7b 99bb
000001a0: 47d3 cf3d 0652 8abb 0368 b3bb f895 6c3d
000001b0: 0d26 a73c fa09 e2bc 6d79 d1bd 9f18 7f3c
000001c0: 7b62 e63d aaf6 1c3b d0f2 b4bd 84e2 0f3d
000001d0: a052 00bd c20d 56be c2d2 bfbd eb57 6f3d
000001e0: 0a0e 9bbd de4a bdbd 3f44 1cbe c4d6 21bd
000001f0: a5fa c4bd 0e8a 7c3d c5ac 823d 3567 b8bb
00000200: 6cc5 bd3d 29d4 d43d c166 463d 9936 ad3d
00000210: e01f cd3d 065a eb3d cee5 87bd 8696 ba3d
00000220: 0114 66bc fe11 093c 7b19 9ebc 9d87 7dbd
00000230: 3621 253d 80b5 49be 0074 373d c60d ef3c
00000240: 1c6c 10bd 496f b3bc 3b9b 44bd 97b0 e03d
00000250: 8808 9abd a022 7bbe 4cf9 89bc 185c 04be
00000260: c078 e43d 2d8f 91bd 2182 a6bd 279a 0abd
00000270: abd9 8a3d 48e9 69bd df07 fcbc a86c 5f3d
00000280: 73b8 01be 2014 d6bc 43ac 35bd 8238 35bc
00000290: f8ab 44bd 1bdf b13d 5e5a da3c 71ec a5bc
000002a0: 6988 f4bd 7101 c5bd a0fa 7bbd 0a2d e7bd
000002b0: 4187 f3bd f946 503c decb 4fbe 2bde 3abe
000002c0: 841e 80bd bcba d7bc a5fb 03bb 660e 83bc
000002d0: cd8f a83b 37d3 32bd bfee 20bd 9fe6 29be
000002e0: 8119 6e3d 755a b3bc 8b78 b8bd 334b ab3d
000002f0: 712e eebe a774 9e3d 0ab9 88bd 90e9 d8bd
00000300: ae73 a5bd a3cb 0cbe 4362 3cbe 6d05 70bd
00000310: a22d 33bd a7e1 81be c734 fcba 0fed 3ebe
00000320: a72c dfbd 3dd0 1cbe f9f0 2fbe 8776 cbbd
00000330: 0a88 68bd b7f9 c5bc 2f47 b9bd 3a18 043d
00000340: 26b1 e9bd a5d9 be3d c9dd 8fbd 8edc 133d
00000350: ae43 3abd d38b 10be a8ac 453d 8328 843c
00000360: ddbe e5bd b91f efbd 953c d9be 3185 01bf
00000370: 8a14 d5be ee56 47bd b4d7 41bd 886b d1bd
00000380: 315a d3bd ce2e 56be cfff 783c 6396 0bbf
00000390: bfdf 69bd 41f8 c23c 5cdd 1abc 8725 15be
000003a0: 692b 95be c365 0fbf 0ba2 303b 1893 8c3d
000003b0: 49d0 31be 6dba 45bd 7ca1 233d 685b 2dbe
000003c0: 40b6 cbbd 58a2 a03d cefd 0abe 72f0 3c3d
000003d0: 42ce 5bbd da8b 5fbc 6358 8e3d abc8 17bc
000003e0: 77d2 7bbe c5e3 fabd e910 13be 50d8 ec3b
000003f0: 9f5a 30bd 9ec2 b0bb c7ee 783d 4f82 62bc
-0.048332382 0.076874554 -0.045565292 -0.110867076 0.09432504 -0.030776067 -0.040934645 0.0294813
-0.03353689 0.10462458 -0.115337044 -0.028621545 0.053957365 -0.037562396 0.04916675 -0.1276515
0.04357782 0.0085260365 0.0051126922 0.025400786 -0.0977272 -0.02690988 0.12763946 -0.0090238135
-0.0072934995 0.00059706403 -0.2753312 0.075261824 -0.07066695 0.07571598 -0.09967376 -0.06275666
0.06802817 0.010751479 -0.08562661 -0.043019358 -0.09466578 0.12392707 -0.1028967 0.017077833
-0.09816961 0.031953998 -0.039760612 0.109865084 0.0039917543 0.09202325 -0.049099613 0.060208686
-0.0771995 -0.026857529 0.07369213 0.094225995 -0.10438279 0.024709923 -0.0029166734 -0.012375881
0.05386988 -0.1394921 0.113166556 0.01541916 -0.0856509 0.00890649 -0.013376814 0.03369153
-0.07927676 -0.13783222 0.047980502 -0.117428616 0.08846069 0.06843527 -0.051137887 0.021433933
0.05451311 -0.07243915 0.084721245 0.08998113 -0.17564209 -0.034725334 -0.05911269 -0.111817166
0.120013684 -0.03251135 0.023619361 -0.018854763 0.042197563 0.07966456 0.009347136 0.00484261
-0.089472964 -0.11759622 0.0826825 0.01741859 0.0013038171 -0.0047857794 -0.06645831 -0.0069553163
0.014945701 0.0788916 0.03344281 -0.11379661 -0.024673332 -0.098806776 0.0891618 -0.0046838964
0.1014772 -0.0042212037 -0.0054750456 0.05776021 0.020403886 -0.027592648 -0.10228238 0.015569835
0.112492524 0.0023950734 -0.08835375 0.03512813 -0.031328797 -0.20903686 -0.09366371 0.058433454
-0.07571037 -0.092427954 -0.15260409 -0.039511457 -0.09618119 0.061655097 0.063806094 -0.0056275376
0.09266171 0.10392029 0.048437838 0.08457679 0.10015845 0.1149178 -0.06635629 0.09110741
-0.014042855 0.008366106 -0.01929926 -0.06189691 0.040314876 -0.19698143 0.04478836 0.029181372
-0.03525935 -0.02190365 -0.0479996 0.10971182 -0.075211585 -0.24524927 -0.016842507 -0.12925756
0.11155844 -0.07107387 -0.08130289 -0.033838417 0.06779798 -0.05710724 -0.030765472 0.054546982
-0.12668018 -0.026132643 -0.044353735 -0.011060836 -0.048015565 0.08685132 0.026654419 -0.020254346
-0.11940081 -0.096194156 -0.06151831 -0.112878874 -0.11891032 0.012712234 -0.20292613 -0.18248813
-0.062558204 -0.02633416 -0.0020139006 -0.015998077 0.0051440955 -0.04365846 -0.039290186 -0.16591881
0.05812979 -0.02189372 -0.09007367 0.083639525 -0.46519807 0.077370934 -0.066759184 -0.105914235
-0.08078705 -0.13749556 -0.18396859 -0.058598924 -0.04374469 -0.25367472 -0.0019241803 -0.18645118
-0.10897189 -0.15313812 -0.17181768 -0.09934717 -0.056770362 -0.024166925 -0.0904678 0.032249667
-0.114107415 0.09318856 -0.07024724 0.03609901 -0.0454747 -0.14115839 0.04826036 0.016132599
-0.11218045 -0.116759725 -0.42429033 -0.5059386 -0.41617233 -0.048666887 -0.04732485 -0.10225588
-0.10319937 -0.20916292 0.015197708 -0.54526347 -0.057098147 0.023800017 -0.00945219 -0.14565097
-0.29134682 -0.5601465 0.0026952054 0.068639934 -0.1736461 -0.048273493 0.039948925 -0.169294
-0.09946871 0.078434646 -0.13573381 0.046127744 -0.0536635 -0.013644183 0.06950452 -0.009264152
-0.24592005 -0.12250475 -0.1436192 0.007227935 -0.043055173 -0.005394294 0.06077459 -0.013825013

fc3.bias f4 [10]
00000000: 68ba c2bd e648 c13d bec4 993c 60df b23d
00000010: b865 eebc a203 aa3c c4d8 6b3b 5017 333d
00000020: 265d 14bd 076a 81bd
-0.095082104 0.094377324 0.018770572 0.08734012 -0.029101238 0.020753685 0.0035987357 0.043723404
-0.036221646 -0.06319051
