lenet_test/Lenet2.pth (torch, 487495 bytes, 10 tensors)

conv1.weight f4 [16, 3, 5, 5]
0.12058527 -0.00044768988 -0.059202235 0.121046156 0.08444325 0.055638596 0.13929325 0.1310878
0.14461866 0.14380564 -0.05577533 0.05839211 -0.03142668 0.091042005 -0.056396607 0.05445102
0.053746812 -0.0062015704 0.05718607 0.13251527 -0.056628704 0.13758676 -0.049084324 0.112325616
0.09143715 0.119336024 -0.048126787 -0.062032737 0.034556754 0.12775822 0.09353928 0.09753508
-0.08961452 0.008371701 -0.09242932 -0.047948584 0.09392172 -0.044487488 -0.06666624 0.11285449
0.061869554 -0.04890071 0.10830672 -0.09356737 0.07337414 -0.06039277 -0.06779979 0.12941827
0.053651456 0.091733634 -0.012258642 -0.08129482 0.0014660414 -0.032231756 -0.11994428 -0.04310459
0.050955147 -0.12875967 0.053415 -0.051189616 0.077486396 0.019261355 -0.07576197 0.037599895
-0.112171136 -0.09838098 -0.06899811 -0.020582061 -0.026965015 -0.058547713 -0.09105794 0.034983102
-0.12048481 -0.10503673 0.053200193 0.10659704 0.09478475 -0.057334583 0.14328039 -0.062456004
-0.022950146 0.08975548 -0.019056428 0.04999215 0.052648015 -0.024769388 0.055974368 -0.006693696
0.10509687 0.12726842 0.11924738 -0.05090149 0.13759322 -0.0274241 0.07624754 0.06376182
-0.0770662 0.08207829 0.1063299 -0.02898685 -0.028961096 0.12795682 0.08680429 -0.092944376
-0.028885953 0.0060156593 -0.07268241 -0.002433117 -0.024791276 0.051146425 0.02719373 0.05149696
-0.040664826 -0.098949395 -0.04095635 0.045678318 0.08055899 0.025462493 0.0014014045 0.10101753
-0.11117834 0.023771832 0.11038193 -0.11465678 0.07827291 -0.10298449 0.059994113 -0.12729648
-0.1042126 -0.1521894 0.023550626 0.017004848 0.05391539 -0.067003176 -0.14486797 -0.1699345
0.039050363 -0.12709977 0.041015785 -0.16337307 -0.05213576 -0.11971721 -0.14538848 0.035749365
-0.12399525 0.0063732374 -0.09781106 -0.0726899 -0.05522678 -0.0047600567 -0.13962683 -0.060575556
-0.008071336 -0.018890621 -0.093935445 -0.0054050623 0.05164021 0.060432002 0.08917381 0.019811317
-0.07544938 -0.011859355 -0.07214322 0.13903354 -0.045264024 -0.044399556 0.032995295 0.05535215
0.048513427 0.11248935 0.06043987 0.04007426 0.104026966 0.08089213 0.06582785 -0.14153951
-0.12586173 -0.028722871 -0.06355859 0.038052082 -0.015839882 -0.06430914 -0.014628234 0.0201127
-0.035361163 0.06062799 0.12592492 0.028314762 0.15702783 0.13034311 0.060550846 0.16919398
0.042764507 0.09259584 -0.022292808 0.15740578 -0.011757277 0.061303984 0.030028263 0.033675235
0.06425975 -0.06273634 0.15527685 0.16296355 -0.07603867 0.15008593 0.089360155 0.07305433
0.11598078 0.15717173 0.060469568 -0.013138346 0.17161967 0.089248486 0.0827903 0.14741059
0.085095204 0.19794624 0.16091669 -0.00219005 0.02303465 0.050653934 0.06303918 0.17009467
0.082183495 0.087642625 0.06644282 0.037287623 0.11676979 0.10615427 0.038278252 0.111225896
0.105472565 0.115837626 -0.043164235 0.13780536 0.042109743 0.15127158 0.0810767 -0.016647205
0.013580389 0.11309969 0.03229277 -0.019699702 -0.024753528 0.03798788 -0.04022904 -0.03243619
0.13719499 -0.019615196 0.11494545 0.09475425 -0.017960226 0.06321048 0.06249983 -0.028730538
00000000: 69f5 f63d ebb7 eab9 0b7e 72bd 0ce7 f73d
00000010: 95f0 ac3d 4ce5 633d e4a2 0e3e e13b 063e
00000020: ea16 143e c941 133e ac74 64bd 912c 6f3d
00000030: 43b9 00bd 3b74 ba3d 2100 67bd 0808 5f3d
00000040: 9e25 5c3d 8b36 cbbb f13b 6a3d 15b2 073e
00000050: 80f3 67bd 8be3 0c3e a50c 49bd f90a e63d
00000060: 6743 bb3d 7266 f43d 9820 45bd 0a16 7ebd
00000070: 628b 0d3d 0dd3 023e 8691 bf3d 79c0 c73d
00000080: d187 b7bd 7629 093c 954b bdbd bc65 44bd
00000090: 085a c03d 8338 36bd 4f88 88bd 4120 e73d
000000a0: ee6a 7d3d 1c4c 48bd eacf dd3d 40a0 bfbd
000000b0: 2e45 963d 695e 77bd 9eda 8abd 3986 043e
000000c0: a1c1 5b3d d8de bb3d 79d8 48bc e67d a6bd
000000d0: 3028 c03a 7205 04bd 59a5 f5bd 708e 30bd
000000e0: 58b6 503d 93d9 03be b0c9 5a3d 34ac 51bd
000000f0: 30b1 9e3d fdc9 9d3c 1729 9bbd 5902 1a3d
00000100: fbb9 e5bd f87b c9bd e24e 8dbd b69b a8bc
00000110: bce5 dcbc bacf 6fbd 967c babd 714a 0f3d
00000120: bdc0 f6bd 7f1d d7bd 72e8 593d 8d4f da3d
00000130: 821e c23d abd7 6abd 18b8 123e ded1 7fbd
00000140: f201 bcbc b9d1 b73d 3a1c 9cbc 92c4 4c3d
00000150: 72a5 573d 2ce9 cabc 6145 653d cb56 dbbb
00000160: 073d d73d a752 023e f837 f43d 157e 50bd
00000170: 3de5 0c3e 82a8 e0bc ac27 9c3d 8f95 823d
00000180: e2d4 9dbd aa18 a83d 7ec3 d93d d575 edbc
00000190: d23f edbc 1d07 033e 73c6 b13d 9f59 bebd
000001a0: 3ca2 ecbc 021f c53b 84da 94bd ee74 1fbb
000001b0: 1317 cbbc ea7e 513d 63c5 de3c 7aee 523d
000001c0: 2990 26bd fba5 cabd d8c1 27bd 3019 3b3d
000001d0: 1dfc a43d b896 d03c 55af b73a 47e2 ce3d
000001e0: 78b1 e3bd 25bd c23c ec0f e23d 2dd1 eabd
000001f0: 8c4d a03d 88e9 d2bd 63bc 753d 025a 02be
00000200: 6a6d d5bd 8ad7 1bbe 3eed c03c c04d 8b3c
00000210: 62d6 5c3d f638 89bd 4558 14be 4f03 2ebe
00000220: 46f3 1f3d 7126 02be 2b00 283d 454b 27be
00000230: 4f8c 55bd 4c2e f5bd b8e0 14be ed6d 123d
00000240: 39f1 fdbd 97d6 d03b 2a51 c8bd 71de 94bd
00000250: 7a35 62bd 40fa 9bbb 56fa 0ebe 131e 78bd
00000260: a33d 04bc 81c0 9abc 3a61 c0bd f31c b1bb
00000270: af84 533d 8c87 773d c2a0 b63d 584b a23c
00000280: 3485 9abd bd4d 42bc d3bf 93bd cf5e 0e3e
00000290: c566 39bd 4fdc 35bd 1326 073d f0b8 623d
000002a0: 04b6 463d d160 e63d cc8f 773d e824 243d
000002b0: 170c d53d c6aa a53d c0d0 863d bcef 10be
000002c0: e6e1 00be 3a4c ebbc 022b 82bd 80dc 1b3d
000002d0: a4c2 81bc 83b4 83bd 43ab 6fbc 64c3 a43c
000002e0: ded6 10bd 0e55 783d 76f2 003e 5cf4 e73c
000002f0: e7cb 203e aa78 053e 2a04 783d 3041 2d3e
00000300: d629 2f3d e3a2 bd3d 689f b6bc fb2e 213e
00000310: 98a1 40bc e319 7b3d d5fd f53c 0bef 093d
00000320: 9e9a 833d e97b 80bd e500 1f3e ebdf 263e
00000330: 2aba 9bbd 20b0 193e 7502 b73d 829d 953d
00000340: 5587 ed3d a0f1 203e f0ae 773d 3842 57bc
00000350: 11bd 2f3e e9c7 b63d f68d a93d cdf2 163e
00000360: 6546 ae3d 6bb2 4a3e 58c7 243e f186 0fbb
00000370: 2ab3 bc3c 807a 4f3d b01a 813d 4c2d 2e3e
00000380: d24f a83d fa7d b33d 2c13 883d e8ba 183d
00000390: 0025 ef3d 6967 d93d a8c9 1c3d 67ca e33d
000003a0: 0002 d83d 473c ed3d fbcc 30bd d91c 0d3e
000003b0: 447b 2c3d f0e6 1a3e 8a0b a63d b85f 88bc
000003c0: 4880 5e3c cfa0 e73d 6c45 043d 4561 a1bc
000003d0: e9c7 cabc 2e99 1b3d 35c7 24bd cfdb 04bd
000003e0: d87c 0c3e 0cb0 a0bc 8568 eb3d 840e c23d
000003f0: 5321 93bc 7f74 813d d2ff 7f3d 4e5c ebbc

conv1.bias f4 [16]
0.11372048 0.059556168 0.029043114 0.07336716 0.04942795 -0.105912685 0.09219953 0.07349384
0.073459536 -0.0649954 0.16295446 0.021362495 0.12820044 0.21670052 -0.08474017 0.088101216
00000000: 48e6 e83d 2bf1 733d d3eb ed3c 8641 963d
00000010: f674 4a3d c0e8 d8bd 1bd3 bc3d f083 963d
00000020: f471 963d 4f1c 85bd 89dd 263e 6600 af3c
00000030: fa46 033e bee6 5d3e 418c adbd 696e b43d

conv2.weight f4 [32, 16, 5, 5]
0.010300023 -0.027020138 -0.010664684 -0.020238433 -0.00781112 -0.023044994 -0.008668291 -0.0007778672
-0.060199518 0.01427213 0.00857296 -0.060308326 -0.025540456 0.030022219 -0.041547462 0.03387613
0.009061602 0.0029773747 -0.048170857 -0.026284158 0.04448391 -0.011161559 0.048063654 0.0131142
0.017678306 -0.0974478 -0.032811474 -0.09552531 -0.09884537 -0.094316 -0.034885935 -0.087452985
-0.038157944 -0.07839544 -0.059324864 -0.06253486 -0.08738928 -0.017757436 -0.08499836 -0.082311064
0.0029580414 -0.02098984 0.03368851 0.011612324 -0.046048008 0.0631835 0.012932501 0.028093698
0.014560016 -0.00018071482 -0.0005220425 -0.08042297 -0.0511291 -0.039150484 -0.05738659 0.037215747
0.008992152 -0.051900428 -0.0407709 -0.046538096 -0.035318583 0.041898392 0.018141843 -0.014208759
-0.03323373 0.010987182 0.05780173 -0.032678686 0.014897523 0.04043221 0.010068576 -0.02111291
-0.020609858 0.011300455 -0.0014443817 -0.0341984 -0.090694755 -0.023340683 -0.06674056 -0.077600695
-0.010534901 -0.061055046 -0.024332035 -0.023560239 0.016730702 0.0035400677 0.027845953 -0.037519723
-0.021634672 -0.0240931 0.022014001 0.011507187 0.040054973 -0.0070542246 -0.000499164 0.035875008
0.052753262 0.034289442 -0.009706113 0.038706303 -0.037593953 -0.015982296 -0.099512994 -0.02319843
-0.10202192 -0.09480265 -0.100550056 -0.088095345 -0.09212339 -0.053489376 -0.05383122 -0.073287115
-0.056167696 -0.025718777 -0.048792914 -0.03310654 -0.0528142 0.019225106 -0.049133934 -0.079897456
0.020723887 0.0049384297 0.054321583 -0.007354508 0.046608984 -0.0625611 -0.06293376 -0.081618465
-0.015246259 -0.00038999325 -0.071004234 -0.074813545 -0.053965956 -0.007575523 -0.035257053 0.046897072
0.0035713592 0.04430287 -0.014652815 0.026644252 0.00080609793 0.054174546 0.0072740964 -0.013113591
0.012162235 0.012586095 0.059689425 0.059927024 0.06313378 0.0097051095 0.012999951 0.020384526
0.034521606 -0.020895103 0.0080473665 -0.05673906 -0.00058334845 0.022309441 -0.044637665 -0.01781978
0.028274044 -0.04674456 0.0104134735 0.032874998 -0.021002088 -0.037262127 -0.029985132 -0.04029684
0.0010707455 -0.04832883 0.0057216776 0.007895169 -0.015343223 -0.045948114 0.015201583 -0.030698601
-0.01569869 -0.012426852 0.011535326 0.032091208 -0.007937653 0.040878173 -0.0036733055 0.0150451
-0.03733502 -0.047613822 0.037174735 0.038745113 -0.013438229 0.01450193 -0.06538547 -0.02357938
0.012336873 0.012322107 -0.05686063 -0.048945416 -0.0146604525 0.010605318 -0.029863413 -0.01703638
-0.07967345 -0.06944323 -0.07803057 -0.04185348 -0.04323448 -0.061644226 -0.0105074635 0.02588382
-0.024771845 -5.943984e-05 -0.046914887 0.029298376 0.026939426 -0.011588816 0.00016959578 0.02038947
0.0037616235 0.04136626 0.028269676 -0.008182977 0.03331105 0.05078263 0.048696928 -0.026484855
0.0114777 -0.070229106 -0.0021937904 0.0012945562 0.0013187125 0.0021630665 -0.030412385 -0.00025416887
-0.011115839 0.008299449 -0.040547624 0.059073765 0.0068390286 0.0038113925 -0.012709708 0.00092842756
0.049408283 -0.005575477 0.024675557 -0.0393062 -0.019391293 -0.030843914 0.035893623 0.03192416
0.005799222 -0.002390656 -0.06379054 -0.011937679 -0.08008822 -0.044402942 0.006066456 0.014672334
00000000: 6dc1 283c 5659 ddbc edba 2ebc 12cb a5bc
00000010: 6cf4 ffbb dbc8 bcbc 7305 0ebc c9e9 4bba
00000020: c593 76bd a7d5 693c 9a75 0c3c dd05 77bd
00000030: 383a d1bc 28f1 f53c ac2d 2abd b2c1 0a3d
00000040: 1d77 143c 0f20 433b ce4e 45bd e051 d7bc
00000050: c334 363d f9de 36bc 65de 443d f1dc 563c
00000060: 18d2 903c b692 c7bd 5365 06bd c6a2 c3bd
00000070: 716f cabd bf28 c1bd 8ee4 0ebd 8d1a b3bd
00000080: 814b 1cbd ca8d a0bd a1fe 72bd 4712 80bd
00000090: 27f9 b2bd 0b78 91bc 9f13 aebd b492 a8bd
000000a0: b3db 413b e3f2 abbc f7fc 093d 9e41 3e3c
000000b0: d69c 3cbd 5a66 813d d7e2 533c c124 e63c
000000c0: 228d 6e3c 447e 3db9 aed9 08ba ccb4 a4bd
000000d0: bf6c 51bd 425c 20bd 330e 6bbd 8a6f 183d
000000e0: d253 133c 8b95 54bd 63ff 26bd bb9e 3ebd
000000f0: 38aa 10bd a69d 2b3d 349e 943c dbcb 68bc
00000100: 1720 08bd 9503 343c 82c1 6c3d 16da 05bd
00000110: be14 743c 3f9c 253d abf6 243c fbf4 acbc
00000120: 01d6 a8bc 8b25 393c 6851 bdba 9f13 0cbd
00000130: 2cbe b9bd f634 bfbc 46af 88bd 1ded 9ebd
00000140: 949a 2cbc db14 7abd fa53 c7bc 6701 c1bc
00000150: d30e 893c 7b00 683b 321d e43c 48ae 19bd
00000160: 323b b1bc e55e c5bc b556 b43c a488 3c3c
00000170: af10 243d 2027 e7bb 54da 02ba acf1 123d
00000180: ce13 583d 1673 0c3d 6306 1fbc 808a 1e3d
00000190: 1efc 19bd 4eed 82bc 78cd cbbd a20a bebc
000001a0: def0 d0bd e427 c2bd 30ed cdbd 556b b4bd
000001b0: 30ab bcbd ad17 5bbd 207e 5cbd 8e17 96bd
000001c0: 1910 66bd 2fb0 d2bc 14db 47bd b99a 07bd
000001d0: b453 58bd f87d 9d3c aa40 49bd 47a1 a3bd
000001e0: 24c5 a93c 8dd2 a13b 4f80 5e3d 16fe f0bb
000001f0: 10e9 3e3d 0920 80bd 6ae3 80bd 9527 a7bd
00000200: 72cb 79bc 0278 ccb9 ab6a 91bd d837 99bd
00000210: 680b 5dbd 183c f8bb b369 10bd 2517 403d
00000220: 770d 6a3b ed76 353d 5c12 70bc 0c45 da3c
00000230: 5150 533a 21e6 5d3d 8b5b ee3b 63da 56bc
00000240: 1c44 473c e935 4e3c e67c 743d 0a76 753d
00000250: 494c 813d 2e02 1f3c bffd 543c 73fd a63c
00000260: 8766 0d3d 352c abbc 1ad9 033c 3767 68bd
00000270: daeb 18ba 4ac2 b63c fcd5 36bd cafa 91bc
00000280: f89e e73c 3977 3fbd 469d 2a3c efa7 063d
00000290: 920c acbc 2ca0 18bd 61a3 f5bc 4d0e 25bd
000002a0: 4258 8c3a 74f4 45bd e97c bb3b bd5a 013c
000002b0: 2462 7bbc 1734 3cbd 0f10 793c a27b fbbc
000002c0: 8a9a 80bc ff99 4bbc aafe 3c3c 1272 033d
000002d0: ee0c 02bc df6f 273d d7bb 70bb b97f 763c
000002e0: 9bec 18bd b606 43bd 8944 183d 32b3 1e3d
000002f0: 052c 5cbc 8199 6d3c d1e8 85bd 8b29 c1bc
00000300: 9920 4a3c aae2 493c b1e6 68bd fd7a 48bd
00000310: 6532 70bc edc1 2d3c 1ea4 f4bc e18f 8bbc
00000320: d52b a3bd 4138 8ebd 7ece 9fbd 8e6e 2bbd
00000330: a316 31bd a87e 7cbd 7f27 2cbc 4e0a d43c
00000340: 53ee cabc 0b4f 79b8 d329 40bd 2603 f03c
00000350: 12b0 dc3c 04df 3dbc 85d5 3139 d107 a73c
00000360: 9285 763b ab6f 293d cf95 e73c e511 06bc
00000370: 2b71 083d 7201 503d 6e76 473d c4f6 d8bc
00000380: f70c 3c3c 47d4 8fbd b2c5 0fbb 19ae a93a
00000390: a6d8 ac3a 3cc2 0d3b 6523 f9bc f841 85b9
000003a0: 351f 36bc 6afa 073c 4415 26bd 55f7 713d
000003b0: ee19 e03b 8ec8 793b 613c 50bc b861 733a
000003c0: 5760 4a3d 7eb2 b6bb 6524 ca3c 8aff 20bd
000003d0: 7dda 9ebc 60ac fcbc 3105 133d e8c2 023d
000003e0: 6607 be3b 8dac 1cbb 9da4 82bd 4196 43bc
000003f0: 4b05 a4bd dcdf 35bd 1fc9 c63b 3b64 703c

conv2.bias f4 [32]
0.0081325825 0.05838983 0.00036693292 -0.035581548 0.0064907325 0.0063355747 -0.024109673 0.019597359
0.030548677 0.06509731 0.071747884 -0.035228133 0.053105038 0.0669065 0.039789733 -0.0068045966
-0.048683614 -0.0082557695 -0.01758327 -0.012562042 -0.01975045 0.039646033 -0.05131994 0.021184567
0.026358625 0.012108797 0.0366847 0.008604988 0.004785149 0.054794546 -0.06464478 0.02066642
00000000: 863e 053c 2d2a 6f3d e760 c039 f5bd 11bd
00000010: 36b0 d43b a79a cf3b a681 c5bc a48a a03c
00000020: 3841 fa3c bd51 853d 8ef0 923d 604b 10bd
00000030: ab84 593d 4606 893d 8ffa 223d 18f9 debb
00000040: 7868 47bd 3543 07bc ca0a 90bc 06d1 4dbc
00000050: b2cb a1bc e163 223d db34 52bd 428b ad3c
00000060: 0bee d73c fa63 463c b242 163d f0fb 0c3c
00000070: bdcc 9c3b 3f70 603d 7b64 84bd a04c a93c

fc1.weight f4 [120, 800]
-0.03374141 0.01597737 -0.024575707 0.018727262 0.011897066 0.026338816 -0.014460316 -0.041260395
-0.025607208 0.0007369196 -0.03019281 0.007477066 -0.039651055 0.021432174 0.004988075 -0.028398778
-0.011085743 0.009523725 -0.039828796 0.027616847 -0.005202074 -0.020570474 -0.031934947 0.016354416
-0.03216765 -0.004634829 0.015659953 -0.02137922 -0.02007159 0.016347094 0.0064268894 -0.018069277
0.020464627 -0.014286442 -0.039590523 -0.025616234 0.02556895 -0.016880209 0.015701208 0.016149728
0.0038430602 0.021325445 0.020278035 0.002557806 -0.0048287055 0.013816172 0.0023277553 -0.038267255
0.018110298 0.00620572 0.003616464 0.0069952505 0.020877657 -0.011149744 0.015777482 0.022770897
-0.020232655 0.0044176592 0.011809462 0.0008640886 0.024092466 -0.040913273 0.016873935 -0.031379074
0.026490219 -0.008892504 -0.020698464 -0.0064452114 0.026843343 -0.0067115924 0.027594408 -0.023138449
0.012093514 0.018771376 -0.03606134 0.008115177 -0.02246718 0.00036811168 0.0039708912 -0.03309765
-0.014701778 -0.02025402 -0.024459258 -0.016800513 -0.02855812 -0.023966942 0.013525482 0.021972714
0.027328704 -0.011586059 -0.019489061 -0.010226466 0.024829876 -0.028103823 -0.010412337 -0.017445443
0.0264095 -0.039884202 -0.03133188 0.0025888453 0.0030492558 -0.018789466 -0.030596929 0.028371211
-0.024629721 -0.03506254 -0.026976826 -0.0294313 -0.016270356 -0.030132152 0.008963594 -0.01708741
-0.01862925 -0.011204631 0.01929684 -0.006373537 0.011297597 -0.017732402 -0.019765222 -0.0025088452
-0.00958845 0.014177623 -0.013133896 -0.01606187 -0.02576022 -0.029448882 -0.016171709 -0.0016985151
0.02955393 -0.008098246 0.023790348 0.008624916 0.030092385 -0.008068962 -0.011393076 0.005772353
0.02178937 -0.011763694 -0.036573164 -0.0067153033 0.012740486 -0.03328276 0.002876529 -0.02864896
-0.020187968 0.0009400398 0.027285319 0.018874973 -0.035459276 -0.011088589 0.008302939 -0.020881338
-0.00014401617 -0.018058373 0.01691709 0.0012923493 0.025033228 -0.015584643 0.0047083176 0.0241924
0.0073722163 -0.03738546 -0.03212487 0.006092355 -0.031356514 0.005102788 -0.03697585 -0.03368957
0.016527768 -0.00846437 -0.00055426615 -0.022152282 -0.026905663 -0.006093235 -0.022760421 -0.0372909
0.02878147 -0.03426009 0.012156934 0.007877193 -0.033298828 -0.024382574 -0.010330801 -0.03183263
-0.02153334 -0.027589934 0.019552128 -0.0053048874 -0.0024895244 0.013046801 -0.025422364 0.013568105
0.012760084 -0.020383153 -0.036664635 0.026239375 0.020336872 0.0077707316 -0.024804289 -0.04054442
0.0088237235 -0.041376587 -0.0038146072 -0.0142484475 0.026044577 -0.036054965 0.020336967 0.016979193
0.02124832 0.017574504 -0.033416655 -0.0077873543 0.011831709 -0.012599408 -0.03481944 0.0046119876
-0.030009158 -0.015233081 -0.020916048 0.0019518898 0.026915213 0.016029019 -0.01279705 -0.0009834215
0.005352429 -0.03331468 -0.013921507 -0.025016394 0.025284477 -0.016655508 -0.0048345295 -0.021673465
-0.000878147 -0.027330695 0.009649569 0.01632182 0.004945286 -0.007165838 0.019577272 -0.036845356
-0.015425382 0.001851689 -0.0299493 0.008064351 0.008284045 -0.022070637 -0.0042863833 0.029204788
0.0028954165 0.009545767 -0.0073891324 -0.007256638 0.029007118 -0.01111566 0.011568789 -0.0034139708
00000000: 6f34 0abd f9e2 823c fe52 c9bc ea69 993c
00000010: e9eb 423c 80c4 d73c f6ea 6cbc a900 29bd
00000020: 35c6 d1bc d62d 413a e956 f7bc 2d02 f53b
00000030: 2569 22bd 8792 af3c 0173 a33b 8ea4 e8bc
00000040: faa0 35bc 6609 1c3c 8523 23bd ba3c e23c
00000050: 2976 aabb 6983 a8bc 38ce 02bd b2f9 853c
00000060: 3ac2 03bd c3df 97bb 4d49 803c 7923 afbc
00000070: 2d6d a4bc 57ea 853c a898 d23b 0506 94bc
00000080: 6fa5 a73c ae11 6abc ac29 22bd 23d9 d1bc
00000090: fa75 d13c 5d48 8abc d29f 803c 6f4c 843c
000000a0: dadb 7b3b b3b2 ae3c 1f1e a63c dda0 273b
000000b0: 1e3a 9ebb 3a5d 623c 418d 183b 20be 1cbd
000000c0: 0c5c 943c 5a59 cb3b 3302 6d3b 6a38 e53b
000000d0: 9f07 ab3c 6aad 36bc c73f 813c 088a ba3c
000000e0: f4be a5bc 03c2 903b 797c 413c 0184 623a
000000f0: 905d c53c ad94 27bd 353b 8a3c 5887 00bd
00000100: 0402 d93c ddb1 11bc d38f a9bc 5a32 d3bb
00000110: 92e6 db3c ebec dbbb ab0d e23c d88c bdbc
00000120: e023 463c 6ec6 993c 0eb5 13bd 85f5 043c
00000130: 170d b8bc 1dff c039 401e 823b 6791 07bd
00000140: badf 70bc c2eb a5bc c85e c8bc 3ba1 89bc
00000150: b8f2 e9bc 5256 c4bc fc99 5d3c 1f00 b43c
00000160: 72e0 df3c 74d3 3dbc 86a7 9fbc e88c 27bc
00000170: 0668 cb3c fd39 e6bc 8298 2abc bfe9 8ebc
00000180: bc58 d83c 9e5d 23bd db55 00bd 9ea9 293b
00000190: 06d6 473b 5eec 99bc 69a6 fabc be6a e83c
000001a0: 45c4 c9bc bd9d 0fbd 81fe dcbc e919 f1bc
000001b0: 6949 85bc b4d7 f6bc 0adc 123c e5fa 8bbc
000001c0: 5e9c 98bc a193 37bc 6814 9e3c 1ad9 d0bb
000001d0: 8e19 393c 8b43 91bc adea a1bc 706b 24bb
000001e0: e018 1dbc 4349 683c 8d2f 57bc 2f94 83bc
000001f0: 1907 d3bc c83e f1bc 887a 84bc b6a0 deba
00000200: 151b f23c 81ae 04bc fae3 c23c 854f 0d3c
00000210: 4e84 f63c ae33 04bc 06aa 3abc 0226 bd3b
00000220: 9f7f b23c 82bc 40bc becd 15bd 0c0c dcbb
00000230: 79bd 503c 8153 08bd 2684 3c3b 39b1 eabc
00000240: 3d61 a5bc 016d 763a 7685 df3c b09f 9a3c
00000250: bf3d 11bd eaac 35bc 0d09 083c 570f abbc
00000260: 0c03 17b9 27ef 93bc b695 8a3c 0c64 a93a
00000270: 7c12 cd3c bb56 7fbc 3b48 9a3b 242f c63c
00000280: a292 f13b 7f21 19bd 5e95 03bd 61a2 c73b
00000290: b06f 00bd 4a35 a73b fd73 17bd 13fe 09bd
000002a0: 3e65 873c 24ae 0abc 2c4c 11ba b478 b5bc
000002b0: 4469 dcbc c3a9 c7bb 1074 babc 58be 18bd
000002c0: 1ec7 eb3c 4f54 0cbd e02d 473c 580f 013c
000002d0: 5a64 08bd f7bd c7bc 8542 29bc ef62 02bd
000002e0: b066 b0bc 4904 e2bc c92b a03c 9fd4 adbb
000002f0: 4a27 23bb 40c2 553c 9042 d0bc c24c 5e3c
00000300: ac0f 513c 92fa a6bc a82d 16bd f5f3 d63c
00000310: 8399 a63c 9fa1 fe3b 5d32 cbbc e811 26bd
00000320: 6191 103c 7f7a 29bd 7dfe 79bb 5272 69bc
00000330: 705b d53c 5fae 13bd b699 a63c f317 8b3c
00000340: f510 ae3c 68f8 8f3c e7df 08bd 102d ffbb
00000350: c9d9 413c bf6d 4ebc d49e 0ebd 2820 973b
00000360: c4d5 f5bc 2c94 79bc 2258 abbc 8ed6 ff3a
00000370: 4b7d dc3c 4a4f 833c b8aa 51bc 26e6 80ba
00000380: 6e63 af3b f974 08bd 0817 64bc 2eef ccbc
00000390: 6421 cf3c 2271 88bc f96a 9ebb 8d8c b1bc
000003a0: 7333 66ba 9fe4 dfbc 3a19 1e3c 56b5 853c
000003b0: 110c a23b 68cf eabb 8460 a03c 28eb 16bd
000003c0: beba 7cbc 5fb4 f23a 3c58 f5bc 5720 043c
000003d0: ceb9 073c 7bcd b4bc ca74 8cbb e13e ef3c
000003e0: 07c1 3d3b d965 1c3c 8920 f2bb 17c9 edbb
000003f0: 56a0 ed3c 751e 36bc 058b 3d3c edbc 5fbb

fc1.bias f4 [120]
0.009368064 0.009989373 0.03604027 0.04917524 -0.023835372 0.043643203 -0.019787556 0.011967825
0.00859926 0.02806012 -0.02599263 -0.027683068 0.026305323 0.03380799 -0.0058666244 -0.022671692
0.0038200654 -0.009375527 0.010424669 0.015511558 -0.003252846 0.04700942 -0.009790885 -0.029268647
-0.01917488 0.007953797 -0.008952753 -0.0070934617 0.013308686 -0.017498242 -0.022089968 -0.042485975
-0.03952059 -0.00072168413 -0.011533255 0.020573344 0.0031843178 0.026976565 -0.018221783 0.08061124
0.010161219 -0.00031485612 -0.013101823 0.025395134 0.022815185 -0.024751972 -0.01855918 0.012935417
-0.008371684 0.040173605 0.023521269 0.041164283 0.030210974 -0.010153659 0.049069792 0.06663626
0.015441422 0.03723268 0.023882618 0.0009330337 -0.01776653 -0.0058090365 -0.010454667 0.003778374
-0.027439307 0.03525287 -0.00093708135 0.005600127 0.027525537 -0.0037716879 0.044316664 -0.0111405365
-0.0132531235 0.0040041064 0.0048056995 0.066903785 -0.034322955 -0.027343696 0.03372937 0.038442213
0.024989229 -0.026479319 0.04608036 -0.004605535 0.005656565 0.049750935 -0.024923807 0.0038953864
-0.005765045 0.0014007048 0.056929838 0.021517428 0.011361793 0.022465365 0.020173898 -0.023432653
0.010656299 0.038875446 -0.014537928 0.037025694 -0.056798737 -0.016548207 0.015257392 0.027709506
0.03186302 -0.034727935 -0.024354758 0.06822425 -0.005075015 -0.0037856875 0.034014367 -0.016254576
0.0020114747 0.009856139 0.0007705761 0.057138793 0.055349797 -0.017119778 -0.011227161 -0.043174025
00000000: 827c 193c 78aa 233c f69e 133d fa6b 493d
00000010: 6642 c3bc 37c3 323d 8319 a2bc b214 443c
00000020: e9e3 0c3c 56de e53c 7fee d4bc 9ac7 e2bc
00000030: 437e d73c 3f7a 0a3d d03c c0bb fcb9 b9bc
00000040: 105a 7a3b cf9b 19bc 3bcc 2a3c 3124 7e3c
00000050: b32d 55bb f38c 403d f369 20bc cdc4 efbc
00000060: a314 9dbc a450 023c 91ae 12bc 4570 e8bb
00000070: ad0c 5a3c 7958 8fbc 05f6 b4bc c605 2ebd
00000080: 58e0 21bd 672f 3dba faf5 3cbc 6e89 a83c
00000090: fdaf 503b f5fd dc3c d945 95bc 8117 a53d
000000a0: 3e7b 263c 4613 a5b9 07a9 56bc 7509 d03c
000000b0: e9e6 ba3c a6c4 cabc 6c09 98bc 12ef 533c
000000c0: 6329 09bc 148d 243d adaf c03c e19b 283d
000000d0: 017d f73c 885b 26bc 68fd 483d 9778 883d
000000e0: 05fe 7c3c 4b81 183d 7ba5 c33c d596 743a
000000f0: 1d8b 91bc bb59 bebb 0d4a 2bbc 999e 773b
00000100: 66c8 e0bc 5065 103d 77a6 75ba 4581 b73b
00000110: 3c7d e13c 6c2e 77bb 6485 353d cc86 36bc
00000120: a123 59bc e134 833b 2179 9d3b da04 893d
00000130: 3a96 0cbd e3ff dfbc cf27 0a3d 9575 1d3d
00000140: 36b6 cc3c 28eb d8bc c2be 3c3d 07ea 96bb
00000150: b55a b93b a3c7 4b3d 032d ccbc bd49 7f3b
00000160: b4e8 bcbb db97 b73a 432f 693d 5145 b03c
00000170: d026 3a3c 4909 b83c bb43 a53c d6f5 bfbc
00000180: c297 2e3c dc3b 1f3d 7d30 6ebc 41a8 173d
00000190: cba5 68bd 1b90 87bc 24fa 793c 0cff e23c
000001a0: cc82 023d e13e 0ebd a183 c7bc 28b9 8b3d
000001b0: 504c a6bb 4c19 78bb a652 0b3d 5128 85bc
000001c0: f2d2 033b a57b 213c 7d00 4a3a 5e0a 6a3d
000001d0: 78b6 623d c73e 8cbc 20f2 37bc 3fd7 30bd

fc2.weight f4 [84, 120]
0.013395617 0.067126215 -0.00396142 0.007855322 -0.07590636 -0.0879144 0.0402108 0.060910586
-0.0056178123 0.048006654 -0.09902487 -0.03944406 -0.046611648 -0.054855738 -0.014827592 -0.06830832
0.045629695 0.034263756 0.05643113 -0.048410572 0.02656283 0.01467358 -0.0028619883 0.056624588
-0.047656354 0.03671456 -0.04717931 -0.011425866 -0.040511407 0.047116447 0.014954049 0.0017033815
-0.050063007 -0.040082514 0.045044795 -0.13665505 -0.05675963 -0.09406429 -0.064737625 -0.09703352
-0.052084748 0.019782336 -0.06435061 -0.0542828 0.08198327 0.06536558 0.010897115 -0.028673658
0.021672932 0.03911286 -0.0063454877 -0.05022419 -0.04042544 -0.049878873 0.013933942 0.019187558
-0.08892768 -0.0019194025 -0.016068975 -0.05340533 0.048521996 0.011629581 0.077336155 0.0193009
-0.028901216 -0.050769612 -0.05101281 -0.10109579 0.07807104 -0.023396838 -0.07553702 0.021092849
0.009710407 0.06595499 -0.07884702 0.018140122 -0.07937301 0.07647037 0.071395844 0.023957195
0.016637456 -0.030598843 0.026829857 0.04699233 -0.10583356 -0.028827755 -0.092069596 0.0102857975
0.024593258 0.036882017 -0.031486467 -0.05499093 -0.09921296 -0.0689125 0.030076286 0.0135553265
-0.0093254065 -0.04859705 -0.040717833 -0.03363003 0.061693907 -0.07418658 0.015843557 0.039835162
0.07500845 -0.068827264 0.017328566 0.023411669 -0.07361046 -0.082308955 0.003946289 0.06494381
0.017462045 -0.039381996 -0.021144398 0.009985784 -0.07403104 0.069254816 0.05844411 0.051736712
-0.07162473 -0.059705522 0.052984715 -0.014117862 0.03450363 -0.082133 -0.008665445 -0.019469004
-0.051314615 -0.08928462 -0.024133814 0.018223405 -0.04064138 0.058719393 -0.09527318 -0.047983766
-0.05562458 0.058996335 -0.024549147 0.08348286 -0.061584633 -0.062227998 -0.010360441 0.0599719
0.008886568 0.07605785 -0.022394292 0.036488444 0.017682046 0.002029337 -0.0009563342 -0.090454206
0.08527188 -0.03549857 -0.030300738 -0.05516724 -0.0022993274 -0.03223147 -0.06616958 0.07447008
0.013571717 -0.07606422 0.09127429 0.028480599 -0.08736517 -0.055000383 0.011922845 -0.0068060756
-0.011492779 -0.009073084 -0.05277696 -0.10417356 0.0138609735 -0.039501224 0.07695431 -0.009186553
-0.008725251 -0.10097257 0.008804394 -0.017487777 -0.08150576 0.080077246 -0.10363001 0.05645395
0.04924102 0.010009753 0.088483065 0.0317735 0.033364512 0.06262852 0.057157837 -0.08815432
-0.00550586 -0.09213708 -0.074725956 0.012196881 0.06271584 0.0717098 0.048181713 -0.0699769
-0.07903079 -0.045209385 0.04321425 -0.07325792 -0.045720074 -0.08852264 -0.007015176 0.018488772
-0.08247206 0.05628604 -0.077488095 0.053021196 -0.067892015 -0.050074153 0.0270471 -0.052976135
-0.026027828 0.059658065 0.021112092 -0.0671154 0.03225837 -0.04478918 -0.025585158 -0.019526811
0.069932476 0.08902216 -0.045670077 0.019605953 -0.007693924 -0.070342064 0.0693136 0.019465698
-0.07323563 0.07164353 0.042993054 -0.021960383 0.0025600195 0.018891687 -0.026883408 0.012702264
-0.020039463 0.039871488 0.03768894 -0.019615388 0.097458355 0.13206336 -0.091250464 -0.076685265
0.066907085 0.08081519 0.018966638 0.04103941 0.054604493 0.022357788 0.007506593 0.014945223
00000000: 4a79 5b3c 7879 893d cdce 81bb 9cb3 003c
00000010: cb74 9bbd 770c b4bd 14b4 243d 617d 793d
00000020: a015 b8bb a0a2 443d 8dcd cabd 1890 21bd
00000030: dbeb 3ebd 69b0 60bd 6eef 72bc 3ce5 8bbd
00000040: 34e6 3a3d 2758 0c3d 5424 673d 2a4a 46bd
00000050: 4b9a d93c 7569 703c 3290 3bbb 2fef 673d
00000060: 4f33 43bd 0262 163d 183f 41bd 8e33 3bbc
00000070: 4aef 25bd 2dfd 403d d401 753c 0044 df3a
00000080: de0e 4dbd 902d 24bd e480 383d 4def 0bbe
00000090: c97c 68bd c7a4 c0bd 2995 84bd 83b9 c6bd
000000a0: d156 55bd 910e a23c 41ca 83bd a457 5ebd
000000b0: d8e6 a73d 64de 853d d089 323c 05e5 eabc
000000c0: 6f8b b13c ce34 203d cfed cfbb e1b7 4dbd
000000d0: 2595 25bd ca4d 4cbd 304b 643c 3a2f 9d3c
000000e0: b71f b6bd 7694 fbba 15a3 83bc 8cbf 5abd
000000f0: 00bf 463d 008a 3e3c 6b62 9e3d ec1c 9e3c
00000100: 3ec2 ecbc ccf3 4fbd cff2 50bd 4f0b cfbd
00000110: b6e3 9f3d baaa bfbc 27b3 9abd e9ca ac3c
00000120: 6618 1f3c 6913 873d 8c7a a1bd 989a 943c
00000130: 518e a2bd 7f9c 9c3d fc37 923d e141 c43c
00000140: 464b 883c 6daa fabc 4aca db3c 087b 403d
00000150: 44bf d8bd 2f28 ecbc fc8e bcbd c385 283c
00000160: cd77 c93c 9911 173d f4f7 00bd 2b3e 61bd
00000170: 2a30 cbbd ff21 8dbd 8b62 f63c 2917 5e3c
00000180: 97c9 18bc b30d 47bd bec7 26bd a4bf 09bd
00000190: c0b2 7c3d 22ef 97bd 59ca 813c 322a 233d
000001a0: 089e 993d 4ff5 8cbd a3f4 8d3c d4c9 bf3c
000001b0: 15c1 96bd 9991 a8bd df4f 813b 4301 853d
000001c0: 900c 8f3c 044f 21bd 0437 adbc 6a9b 233c
000001d0: 969d 97bd 78d5 8d3d 1763 6f3d e0e9 533d
000001e0: fdaf 92bd c78d 74bd 8006 593d 9b4e 67bc
000001f0: ae53 0d3d 5935 a8bd 83f9 0dbc 767d 9fbc
00000200: 462f 52bd dbda b6bd 47b4 c5bc 4049 953c
00000210: 9377 26bd bf83 703d 961e c3bd a08a 44bd
00000220: 99d6 63bd 24a6 713d 4b1b c9bc 10f9 aa3d
00000230: 2b40 7cbd c9e2 7ebd d7be 29bc 18a5 753d
00000240: f898 113c 38c4 9b3d 3c74 b7bc e874 153d
00000250: f0d9 903c a0fe 043b 80b2 7aba 0e40 b9bd
00000260: 06a3 ae3d f366 11bd 4139 f8bc 0bf7 61bd
00000270: 50b0 16bb 2505 04bd eb83 87bd c583 983d
00000280: e85b 5e3c 8fc7 9bbd 04ee ba3d 2550 e93c
00000290: 83ec b2bd 1548 61bd 0958 433c 8005 dfbb
000002a0: 354c 3cbc 46a7 14bc a72c 58bd f358 d5bd
000002b0: 2319 633c 09cc 21bd 399a 9d3d 3283 16bc
000002c0: 5bf4 0ebc b5ca cebd 4e40 103c 8742 8fbc
000002d0: 7eec a6bd 8aff a33d f83b d4bd 423c 673d
000002e0: f4b0 493d f2ff 233c 9c36 b53d ee24 023d
000002f0: 3aa9 083d 6243 803d 561e 6a3d 418a b4bd
00000300: 806a b4bb 5eb2 bcbd ec09 99bd 6dd5 473c
00000310: 2a71 803d 96dc 923d 305a 453d 0d50 8fbd
00000320: e5da a1bd 7a2d 39bd 6d01 313d 4008 96bd
00000330: f944 3bbd 5c4b b5bd 90df e5bb c475 973c
00000340: 1de7 a8bd 318c 663d 14b2 9ebd c12c 593d
00000350: f80a 8bbd 8e1a 4dbd e191 dd3c 81fd 58bd
00000360: 5038 d5bc 045c 743d 44f3 ac3c cd73 89bd
00000370: 5a21 043d dc74 37bd f797 d1bc b1f6 9fbc
00000380: c238 8f3d 4051 b63d 8c10 3bbd aa9c a03c
00000390: 501d fcbb 800f 90bd 4af4 8d3d 8776 9f3c
000003a0: 90fc 95bd d8b9 923d 7c19 303d 43e6 b3bc
000003b0: 00c6 273b bdc2 9a3c 983a dcbc 281d 503c
000003c0: cd29 a4bc 4950 233d b85f 1a3d 73b0 a0bc
000003d0: 3f98 c73d 9e3b 073e 86e1 babd 2a0d 9dbd
000003e0: 9506 893d 6f82 a53d ec5f 9b3c f118 283d
000003f0: f6a8 5f3d ae27 b73c def9 f53b cfdc 743c

fc2.bias f4 [84]
-0.017784199 -0.060997065 0.06262092 0.012795989 0.05473226 -0.07277202 -0.037614364 -0.08234029
-0.013884234 0.056926023 -0.028198984 0.05752742 0.11777481 0.09207355 -0.047596026 0.025717024
0.0069707036 0.08476492 -0.04256498 0.01165074 0.03535701 -0.03617053 0.03621015 0.06914363
-0.017561203 0.013778262 0.06304372 0.075890705 -0.0324903 -0.062227633 -0.025240032 -0.017958574
0.095802054 0.012890817 0.043983743 0.023496699 0.023104677 0.004778972 -0.09096889 0.070936136
-0.0463793 -0.079439074 0.10760665 -0.08173525 -0.11232854 -0.06525262 -0.07023107 0.09183171
0.07907928 0.021641975 0.10016293 -0.06835417 0.08446112 0.021295652 -0.031589083 0.026508713
-0.034818955 0.08909636 0.07287866 -0.094674714 -0.107677855 -0.076647736 0.08498399 -0.08230811
-0.068707615 -0.09643237 0.07223436 0.0069796606 -0.024298009 0.09164314 0.119883776 0.050730992
0.091924764 -0.04260344 0.07383893 -0.047990303 -0.0037875797 -0.03178672 -0.023013651 -0.061640494
-0.029023016 0.05043242 -0.11011818 0.01969839
00000000: 2bb0 91bc 0fd8 79bd 663f 803d 45a6 513c
00000010: ef2e 603d 7f09 95bd 8511 1abd 07a2 a8bd
00000020: b37a 63bc 432b 693d 8e01 e7bc dfa1 6b3d
00000030: eb33 f13d 0f91 bc3d 0df4 42bd 82ac d23c
00000040: 806a e43b 3b99 ad3d 9e58 2ebd bfe2 3e3c
00000050: 83d2 103d 8d27 14bd 1851 143d 2d9b 8d3d
00000060: 83dc 8fbc 38be 613c 111d 813d 966c 9b3d
00000070: 8c14 05bd 67e2 7ebd 2fc4 cebc dc1d 93bc
00000080: de33 c43d 0134 533c 4c28 343d 267c c03c
00000090: 0546 bd3c ec98 9c3b e64d babd f746 913d
000000a0: 39f8 3dbd f4b0 a2bd e060 dc3d d064 a7bd
000000b0: 810c e6bd 2aa3 85bd 4fd5 8fbd 4312 bc3d
000000c0: 51f4 a13d 834a b13c 3922 cd3d 45fd 8bbd
000000d0: f4f9 ac3d 3874 ae3c 8e63 01bd cd28 d93c
000000e0: 529e 0ebd 2778 b63d 6841 953d d1e4 c1bd
000000f0: 3586 dcbd 7df9 9cbd 160c ae3d 2891 a8bd
00000100: 94b6 8cbd 567e c5bd 9cef 933d a3b5 e43b
00000110: 9e0c c7bc 66af bb3d a085 f53d 4dcb 4f3d
00000120: 0d43 bc3d f280 2ebd dd38 973d 7b91 44bd
00000130: 0b39 78bb cb32 02bd 2087 bcbc be7a 7cbd
00000140: adc1 edbc 3a92 4e3d a485 e1bd 855e a13c

fc3.weight f4 [10, 84]
-0.064293526 -0.0077977837 -0.01680215 -0.047890887 -0.06375977 -0.074041955 -0.012133968 -0.04094747
0.02430319 -0.074291855 0.06732491 -0.044289228 0.03173913 0.07266656 0.19380257 -0.06477492
0.08580005 0.06965166 0.018870518 0.024262741 0.092441924 0.025356788 -0.030815806 -0.055181343
0.0815711 -0.019458495 0.033091977 -0.040105168 0.083127 0.09485096 -0.091304556 0.07316463
0.093729384 -0.018048404 -0.049259573 -0.020121273 0.020960718 0.005388532 -0.10311189 0.09656375
-0.100258775 0.037191886 0.021138152 -0.09075541 0.07040213 0.00071187236 0.089855164 0.022643873
0.02471163 -0.016542811 0.031421345 0.021228157 -0.072773255 0.06583903 0.0009134412 -0.04556199
0.037971135 0.0853432 0.11189943 0.07178709 0.063006334 -0.08479588 0.021198543 -0.034601435
0.018012257 -0.034011357 -0.0060945484 -0.19055335 -0.10988076 -0.034314655 -0.023442231 0.052061386
0.081552304 0.074974775 0.11436452 0.09411601 -0.078757055 -0.0070785787 -0.011990616 -0.098587215
0.05336007 0.011204393 -0.17037062 0.053265557 -0.0043878965 -0.09859679 0.012016809 -0.06971539
0.035907805 -0.05800055 -0.04860735 -0.10108828 -0.25295866 0.08273994 -0.012227843 -0.14167003
0.10706192 0.06994847 -0.09457867 -0.08591402 0.03647386 0.050497163 -0.15366277 -0.019759208
-0.08968411 -0.083725594 0.04238101 0.06687396 0.08665307 -0.022859544 0.105048776 -0.018255362
0.069523506 0.094108425 -0.07734479 0.050182637 -0.017559776 0.06687556 -0.08808406 -0.054438658
-0.03522117 0.080463834 0.024017446 0.09466932 -0.075873934 0.07150645 0.020288203 -0.036006447
0.048916087 0.02306023 0.08349711 -0.115589425 0.0046060937 -0.07922671 0.10070278 -0.0014156775
0.062822156 -0.06687887 0.01739683 0.018123524 -0.13482134 0.10821839 -0.113803536 0.0008443783
-0.023802552 0.048294622 -0.08429972 -0.050080724 -0.15595071 -0.054857086 -0.07006264 -0.30568105
-0.034479436 0.07831093 0.08575769 0.07857502 -0.13463645 -0.02538261 -0.013622974 -0.1328325
-0.062342748 0.060170833 0.004416249 -0.07421596 0.05725887 0.10342577 -0.124404214 0.031749006
0.043334823 0.023444513 0.021618867 0.02393234 0.01782379 -0.045104783 -0.079686865 0.06480398
-0.3056772 -0.021866282 -0.025291275 -0.14744727 -0.1352171 -0.12356523 -0.043244213 -0.09849905
0.016899874 -0.06645957 -0.111582845 -0.13492233 0.046331204 0.0070407055 -0.031871848 -0.12674415
-0.024095798 0.011480436 -0.10641888 -0.08889795 0.09245684 -0.20623848 -0.0049108756 -0.01203681
-0.06920585 0.029660596 0.009377763 0.051657878 -0.1421341 -0.058513094 -0.18649687 -0.08185472
-0.029546276 -0.098673634 -0.0002927905 0.08295306 -0.08952352 -0.059122805 -0.06268163 -0.03083637
-0.035031907 0.05750118 -0.19873095 -0.13632858 -0.080250345 -0.04934729 0.052584432 -0.07593149
-0.13396095 -0.081893 -0.13508685 -0.053329676 -0.060781572 -0.06354966 -0.04026128 0.0611278
-0.20275208 -0.051941823 -0.09279002 -0.074743375 -0.017222887 -0.037452184 -0.03219615 -0.13350385
-0.14808631 0.028881058 -0.03976187 -0.12806368 0.03139741 0.047283284 -0.10596377 0.08523465
-0.25089177 -0.008359053 -0.12545557 -0.0396949 -0.02929425 -0.0618635 -0.10031947 -0.008391872
00000000: 53ac 83bd 8d84 ffbb aaa4 89bc 3c29 44bd
00000010: 7b94 82bd 4fa3 97bd 8dcd 46bc 89b8 27bd
00000020: 7c17 c73c 5426 98bd a4e1 893d 9f68 35bd
00000030: e400 023d 35d2 943d 2e74 463e b7a8 84bd
00000040: f0b7 af3d 88a5 8e3d 5896 9a3c a8c2 c63c
00000050: 3152 bd3d 0ab9 cf3c 6e71 fcbc d505 62bd
00000060: c00e a73d 6c67 9fbc 748b 073d 5145 24bd
00000070: 7d3e aa3d 3841 c23d e2fd babd 56d7 953d
00000080: 31f5 bf3d 3fda 93bc 68c4 49bd 5ed5 a4bc
00000090: d0b5 ab3c 4892 b03b 542c d3bd 37c3 c53d
000000a0: 7954 cdbd 8556 183d eb29 ad3c f9dd b9bd
000000b0: fe2e 903d f29c 3a3a fc05 b83d a57f b93c
000000c0: 0b70 ca3c ca84 87bc abb3 003d ace6 ad3c
000000d0: 250a 95bd 9dd6 863d 0074 6f3a 369f 3abd
000000e0: 9f87 1b3d 6ac8 ae3d 872b e53d 1c05 933d
000000f0: 7709 813d 76a9 adbd 91a8 ad3c 3cba 0dbd
00000100: 718e 933c 7e4f 0bbd c7b4 c7bb 6b20 43be
00000110: 2a09 e1bd 868d 0cbd ec09 c0bc 523e 553d
00000120: e504 a73d 608c 993d f237 ea3d e5bf c03d
00000130: 614b a1bd 6cf3 e7bb 4a74 44bc 18e8 c9bd
00000140: 1790 5a3d a192 373c a375 2ebe fc2c 5a3d
00000150: 58c8 8fbb 1ded c9bd 26e2 443c f1c6 8ebd
00000160: 1014 133d fc91 6dbd 8018 47bd 5f07 cfbd
00000170: cc83 81be 8f73 a93d 4a57 48bc f311 11be
00000180: 4843 db3d 2541 8f3d 76b2 c1bd b1f3 afbd
00000190: 9d65 153d 1dd6 4e3d c659 1dbe 10de a1bc
000001a0: 4dac b7bd 5378 abbd b697 2d3d 37f5 883d
000001b0: 2a77 b13d f043 bbbc d023 d73d 458c 95bc
000001c0: 5762 8e3d ebbb c03d f266 9ebd 4f8c 4d3d
000001d0: 85d9 8fbc 0ef6 883d 6a65 b4bd 12fb 5ebd
000001e0: 1344 10bd 39ca a43d 3cc0 c43c fde1 c13d
000001f0: cb63 9bbd f971 923d 7233 a63c 7f7b 13bd
00000200: 3c5c 483d cfe8 bc3c 8800 ab3d 26ba ecbd
00000210: b7ee 963b 9d41 a2bd 423d ce3d 418e b9ba
00000220: e7a8 803d caf7 88bd cc83 8e3c c977 943c
00000230: 9b0e 0abe 9aa1 dd3d d411 e9bd 4559 5d3a
00000240: 92fd c2bc 95d0 453d 55a5 acbd 7221 4dbd
00000250: 8bb1 1fbe d3b1 60bd 007d 8fbd 3a82 9cbe
00000260: 4f3a 0dbd 7b61 a03d baa1 af3d f1eb a03d
00000270: 23de 09be 31ef cfbc e532 5fbc 3e05 08be
00000280: 1c5b 7fbd b175 763d 2fb6 903b 8afe 97bd
00000290: 4788 6a3d e4d0 d33d a3c7 febd 3f0b 023d
000002a0: db7f 313d b50e c03c 0d1a b13c c10d c43c
000002b0: 3203 923c cbbf 38bd de32 a3bd f3b7 843d
000002c0: b981 9cbe eb20 b3bc a62f cfbc 6bfc 16be
000002d0: 5a76 0abe c40f fdbd d820 31bd dfb9 c9bd
000002e0: 9b71 8a3c f41b 88bd 8c85 e4bd 1429 0abe
000002f0: cac5 3d3d b8b5 e63b 0e8c 02bd 38c9 01be
00000300: 8d64 c5bc 7018 3c3c 24f2 d9bd 2110 b6bd
00000310: 035a bd3d 2e30 53be 69eb a0bb 0a36 45bc
00000320: ccbb 8dbd c7fa f23c 30a5 193c 3697 533d
00000330: 9a8b 11be 6dab 6fbd 09f9 3ebe 73a3 a7bd
00000340: 080b f2bc 6715 cabd ad81 99b9 4be3 a93d
00000350: 1b58 b7bd c12a 72bd 3a5f 80bd 8e9c fcbc
00000360: 9e7d 0fbd 5b86 6b3d 2080 4bbe b899 0bbe
00000370: 4b5a a4bd 6220 4abd c662 573d f881 9bbd
00000380: 0f2d 09be 84b7 a7bd 3554 0abe 3870 5abd
00000390: 19f6 78bd 5326 82bd 03e9 24bd 2561 7a3d
000003a0: 3e9e 4fbe f3c0 54bd b208 bebd 0e13 99bd
000003b0: 0317 8dbc 7667 19bd 1ce0 03bd 3cb5 08be
000003c0: f0a3 17be f897 ec3c 58dd 22bd 2023 03be
000003d0: 929a 003d 1eac 413d 8803 d9bd 818f ae3d
000003e0: e374 80be 69f4 08bc 6d77 00be 1f97 22bd
000003f0: 7ffa efbc 9564 7dbd 4b74 cdbd 107e 09bc

fc3.bias f4 [10]
0.04960598 -0.036465082 0.01817416 0.072266616 0.009187784 -0.0019836242 -0.13739127 -0.03226937
-0.0036865654 0.017737832
00000000: a42f 4b3d 695c 15bd fae1 943c 8500 943d
00000010: 5c88 163c b1ff 01bb 4cb0 0cbe e32c 04bd
00000020: 4e9a 71bb ee4e 913c
