lenet_test/Lenet3.pth (torch, 487495 bytes, 10 tensors)

conv1.weight f4 [16, 3, 5, 5]
000000 45 b0 20 3d a5 b3 d7 3d ae 8e a4 bb aa 8b d1 3d
       0.039230604 0.10532311 -0.0050218916 0.10231717
000010 ac 8c 04 3e c1 01 38 3b 6d db 4a 3a 58 de f8 3d
       0.12944287 0.0028077217 0.00077383855 0.12151784
000020 f5 4a 3d 3d ed eb ea 3d 3f 12 4e bd 80 72 20 3d
       0.046214063 0.114707805 -0.05031037 0.039171696
000030 a2 50 0d 3e a5 8e ff 3d 0c d0 25 3e 08 9c 4c 3d
       0.1380029 0.12478379 0.16192645 0.04995349
000040 44 c6 9d bd 19 39 19 3e 0c 7b d1 3c af b5 5c 3d
       -0.07703832 0.14963187 0.025571369 0.053884204
000050 bb 03 36 bd ce c5 70 bd 3b c3 b7 3d ac ec 64 3d
       -0.04443715 -0.05878239 0.08972784 0.05588977
000060 1b fc 82 3c f9 0b fd bd c3 c0 80 3d 20 af 13 3d
       0.015989354 -0.12355799 0.062867664 0.036055684
000070 be 23 b9 3d f4 76 93 bd 49 4e 64 3d bc 61 f1 bc
       0.090400204 -0.07200423 0.05573872 -0.029465549
000080 17 c5 c7 bc 96 1a 31 3d 28 26 88 3d 69 a8 ea bd
       -0.024385972 0.043238245 0.06647903 -0.11457903
000090 60 df 00 be c4 77 84 3d e3 fe 96 bd e2 39 cc 3c
       -0.12585211 0.06468156 -0.073728345 0.024929944
0000a0 4a 72 23 bc fd ab 30 bd ad 66 c6 bc 9c 9f f1 bc
       -0.009975979 -0.04313277 -0.024218882 -0.029495053
0000b0 6b ce 34 3d e2 8a 06 be c4 4b 0b 3d 7d 38 01 3e
       0.044142168 -0.13138917 0.034007803 0.12619205
0000c0 5a ab 7c 3d a0 f5 07 3d d8 e2 79 bd 6a 25 ac bd
       0.06168685 0.03319323 -0.06100735 -0.08405574
0000d0 a4 be 19 be 35 21 d6 bd e6 ba c8 3d f4 94 36 3c
       -0.1501413 -0.104555525 0.09801273 0.011143912
0000e0 2d f9 d8 bd f4 84 6d bd 44 1f b7 bd ab 30 8c 3d
       -0.105944015 -0.057988122 -0.0894151 0.0684522
0000f0 4a 47 cc bd 16 7d 0b be 24 b5 92 3d d6 96 d4 bd
       -0.09974535 -0.13621935 0.07163456 -0.10380332
000100 d2 f9 21 3c ca 31 46 be 39 d5 8e bb 6d e1 8c 3d
       0.009886222 -0.1935493 -0.004358914 0.06878934
000110 10 6a 2b 3c 99 cb e3 3d fc 2e de bd 12 1e b3 bc
       0.010462299 0.111228175 -0.10848805 -0.021864925
000120 07 12 a1 3b 12 dd c2 3d 57 c6 a3 3d 5b 75 97 3c
       0.004915479 0.09514822 0.07996815 0.018488577
000130 08 bb 73 3c ce 35 0d be 27 c8 dc 3d 1a b4 c2 bc
       0.014876135 -0.13790056 0.107803635 -0.02376752
000140 10 a9 e2 bd 32 d5 92 bd 79 a3 e7 bd 90 4d 00 3c
       -0.11067402 -0.0716957 -0.11310477 0.007830992
000150 01 3a eb 3d e2 3c e7 bd 1a 2a c3 bd 47 7d fa 3c
       0.11485673 -0.11290909 -0.095295146 0.030577315
000160 51 73 9a 3d c1 ae 2c 3d 1a a7 25 be 66 c5 3a 3b
       0.07541526 0.042158846 -0.16177025 0.0028499006
000170 2b 20 53 3c d1 fb 35 bd 7a 42 f5 3d 2b 90 2b be
       0.012886087 -0.044429604 0.1197557 -0.16754214
000180 3c ce 21 be 9b 91 ed bd d4 77 e3 bd 23 82 e4 3d
       -0.15801328 -0.11600038 -0.1110684 0.11157634
000190 14 4a d3 bd a0 0f e7 bd 17 f1 ba bd d4 f0 a3 3d
       -0.10316864 -0.11282277 -0.091280155 0.08004919
0001a0 c3 d2 02 bd 46 ad db bb 9d 53 30 3c 65 0e 98 3c
       -0.03193928 -0.0067040054 0.010762122 0.018561551
0001b0 d1 fd 98 bd 14 70 1e 3e 22 79 a2 bd 64 68 84 bc
       -0.07470287 0.15472442 -0.079332605 -0.016163059
0001c0 8a 28 a2 3d 01 78 60 3d 30 82 0d 3e 69 92 4c bd
       0.079178885 0.054801945 0.13819194 -0.049944315
0001d0 ac be 3b 3d 56 70 e4 bd 4e c7 08 3d ca 26 0e 3e
       0.045836136 -0.11154239 0.033393197 0.13881984
0001e0 91 8c 13 be d4 9a c3 bd 96 db 7e 3d cd 83 10 3d
       -0.1440909 -0.095510155 0.062221132 0.035281945
0001f0 e6 5c eb 3d 7b 28 35 bc 0c 3c 5a 3d 20 db a7 3d
       0.11492328 -0.011057015 0.05327992 0.08196092
000200 89 83 10 3e 49 7a dd 3c 8a bb 54 bd 08 19 e0 bc
       0.14112677 0.02703585 -0.051936664 -0.027355686
000210 50 34 41 3c b7 e5 23 3e f3 45 4b 3b f5 85 02 be
       0.011792257 0.16005598 0.0031017035 -0.12746413
000220 59 ab 0e be b5 e3 cb 3d a9 38 cb 3d ee d7 70 3d
       -0.13932551 0.09955541 0.099229164 0.058799677
000230 a9 53 74 3d bc a4 f4 3b 6b 6f cb 3c c6 60 1b 3e
       0.059650097 0.007465927 0.024833402 0.15173635
000240 b9 eb f6 3d 3e b0 a5 bd 23 13 1b 3b 6c 16 bc 3d
       0.12056679 -0.08090256 0.002366253 0.09183964
000250 ad f7 ed bc a6 84 ca 3d 8b 18 3c 3d 0e 69 53 3d
       -0.029048765 0.09888582 0.045921843 0.05161386
000260 bc f3 af 3d 0e 33 b3 bd af 36 95 bb ba a3 df bc
       0.085914105 -0.08749972 -0.004553638 -0.02729975
000270 7f 0f 46 bd f5 7b 7a 3d cf 82 2c bb 8a 41 66 bd
       -0.048354622 0.06115337 -0.0026323085 -0.056214847
000280 52 63 b0 bd 2a 0e e4 bb f6 84 88 3d 7a 00 9f 3d
       -0.08612694 -0.0069596963 0.06665985 0.07763763
000290 99 9b a1 bc c2 72 a0 bd 00 73 ec 3c 24 9b dd bc
       -0.019727515 -0.07834388 0.02886343 -0.027051516
0002a0 7d 79 c4 b8 a4 f0 8d 3c a2 0b 65 3c a1 22 ef 3d
       -9.368637e-05 0.01732666 0.013979824 0.11676527
0002b0 31 88 aa bd 7f 30 83 3d 03 28 0d 3e 6c 44 c6 bc
       -0.08326758 0.06405734 0.13784795 -0.024202548
0002c0 4f 67 0f bc 65 b9 6a bd 4f 7d 8b bd 4e 64 71 bd
       -0.008752658 -0.057305712 -0.0681101 -0.05893355
0002d0 07 e7 8b bd 2a 87 55 bd eb 92 be bd bc bd 9e bb
       -0.06831174 -0.052130856 -0.09305366 -0.0048443954
0002e0 3b 5e 0d 3e 41 60 95 3d fa 43 28 3d f6 58 df 3d
       0.13805477 0.072937496 0.041080453 0.1090564
0002f0 7b d6 b1 bd 4f 3e 0e 3e 38 94 53 bd cc 2e 8e bd
       -0.08683487 0.13890956 -0.051655024 -0.069425195
000300 54 13 32 bd 5f e4 84 3d 99 5a ed 3c b9 d0 84 3d
       -0.043475464 0.06488871 0.028973864 0.06485123
000310 65 f0 af bd a9 0e f5 3d bf 23 58 bd 8f 1c dd 3b
       -0.085907735 0.11965687 -0.052768465 0.006747789
000320 b4 b7 9e 3b 95 51 45 bd 2d 93 71 bd 80 26 57 3d
       0.0048436765 -0.048173506 -0.05897825 0.05252695
000330 c6 cd bc bd 0e 42 6a 3d f2 5b 04 3e 7b 6c 51 3d
       -0.09218936 0.0571919 0.129257 0.051128846
000340 0a fa f7 bc 44 25 b9 3d 61 fa 8a 3d 8a 4e bc bd
       -0.030270595 0.09040311 0.06786037 -0.09194668
000350 ad e5 ea bc 2a 5f 5d 3d e6 06 d5 3d 03 20 cf bc
       -0.028673971 0.054045834 0.104017064 -0.025283819
000360 25 d4 be bd e5 9b c9 3d 6c e2 6e bd 82 30 69 3c
       -0.09317807 0.09844188 -0.0583214 0.014232757
000370 46 d4 46 bd 00 ca af bd 7b 81 a0 3d 02 a6 32 3d
       -0.048542283 -0.0858345 0.078371964 0.04361535
000380 c5 c5 46 bd 92 81 86 3b 9e e1 a1 3d e2 ba f9 3d
       -0.04852845 0.0041048015 0.07904361 0.12193848
000390 42 58 61 3b b4 38 e6 bd 2f 96 a2 bd b6 15 ae 3d
       0.003438488 -0.11241284 -0.079388015 0.08500235
0003a0 ee 62 e2 3c d0 5b 8b bd f4 a8 01 3c a4 03 b3 bc
       0.027635064 -0.06804621 0.007913817 -0.021852322
0003b0 b9 a0 1a 3d 50 39 bc bd 64 62 88 3c 5f c9 88 bd
       0.037750933 -0.09190619 0.016648479 -0.066790335
0003c0 7b 0e ec bd 5c df 05 be ef 7a eb bd 69 e4 98 bd
       -0.115261994 -0.13073486 -0.11498057 -0.07465441
0003d0 00 74 4c 3d e1 18 17 be 02 dc 0e bc bd f5 96 bd
       0.049915314 -0.14755584 -0.008719446 -0.073710896
0003e0 17 b3 12 be f9 44 0a be 89 99 12 3e 02 be 25 3d
       -0.1432613 -0.13502873 0.14316382 0.04046441
0003f0 71 3d 2b 3c 9d 9f a5 bc 81 fd f0 bd 4d 17 ed 3d
       0.0104516605 -0.020217711 -0.11767102 0.1157671

conv1.bias f4 [16]
000000 38 55 ab 3d 42 52 86 bd 40 3c 29 bd f6 e9 05 3d
       0.083658636 -0.06558658 -0.041317225 0.032693826
000010 21 00 c9 3c 1f ed 7d 3d 1a 41 f3 ba 85 8d 19 be
       0.024536194 0.061993714 -0.001855883 -0.14995392
000020 38 37 bf bc f6 79 72 bc ce 2a ec 3d fd ab 12 3e
       -0.02334176 -0.014799586 0.11531602 0.14323421
000030 bb c1 4a 3c 52 9b 2e bd d8 96 01 be 55 61 0e bb
       0.0123752905 -0.042628594 -0.12655199 -0.0021725495

conv2.weight f4 [32, 16, 5, 5]
000000 a1 cf 80 bd af 7f ed bd 6b 79 e3 bc 05 92 f1 3b
       -0.06289602 -0.11596619 -0.027767858 0.007372143
000010 ff ee e2 3d 08 ab 97 bd 8d d0 8d 3b a5 be 14 3d
       0.11080741 -0.074056685 0.0043278397 0.036314625
000020 71 70 0b 3d e2 a3 d8 3d d2 9c be bd 28 77 04 3c
       0.03404278 0.10578133 -0.09307255 0.00808505
000030 a2 ab 74 3d 9a 3b ab 3d fe 6f aa 3d ad 68 86 3c
       0.059733994 0.083609775 0.08322142 0.016407335
000040 04 6b d0 3c 0e 8d 62 3d 49 cc 87 3d d9 b7 22 bc
       0.025441654 0.0553103 0.06630761 -0.009931528
000050 54 90 6a 3d 64 57 80 3d 72 73 b0 bc 68 21 c8 3b
       0.05726655 0.062666684 -0.021539424 0.006107498
000060 b8 44 cf bc 64 ca 23 be 27 c6 6a bd 50 59 56 3d
       -0.025301322 -0.15995175 -0.05731788 0.05233127
000070 94 8d 34 3e 33 39 82 3e 9a f4 ed bd 06 38 10 3c
       0.17632133 0.25434265 -0.1161892 0.0088024195
000080 bb 72 8d 3d 6e c3 e9 3d b5 97 6e 3e 1d 9d 17 be
       0.06906649 0.114142284 0.23300059 -0.14806028
000090 ae 37 3b 3d 10 8e ce 3d 96 98 eb 3d 9e ca 22 3e
       0.045707397 0.1008569 0.11503713 0.15897605
0000a0 b2 be c3 bd f6 a5 04 bc e0 32 b8 3d d8 cc 55 3d
       -0.095578566 -0.008096209 0.08994079 0.052197307
0000b0 f5 02 2b bc 66 be bd bc 7e f5 ca 3c c2 e9 06 bd
       -0.010437717 -0.023162078 0.024775263 -0.032937773
0000c0 a2 42 bb bd e0 ff af bd d9 10 80 3d b1 8c 84 3d
       -0.091435686 -0.08593726 0.062532134 0.06472147
0000d0 55 fe 71 bc 1e ba b3 bc bf 4c 03 bb 91 a0 ca bc
       -0.01477011 -0.021939334 -0.0020034758 -0.024734767
0000e0 ca f8 eb 3c 8e e8 40 bb 36 dc 35 bd 46 b1 1e 3c
       0.028805155 -0.0029435488 -0.044399463 0.00968582
0000f0 88 c2 1d bc 4f 7f a5 3d 21 3a c9 3c 29 15 5a 3d
       -0.009628899 0.08080923 0.02456385 0.053242836
000100 ee 24 14 bd cf ae 92 3d c0 5f 64 3c 6c 20 dd bc
       -0.03616803 0.07162248 0.013938844 -0.026992999
000110 22 10 43 bb 7b 3c 80 bd 50 95 16 3d 7c 65 97 3b
       -0.0029764255 -0.06261536 0.03676349 0.004620252
000120 d9 ba de 3b 7f c6 8e bd 29 46 6c bd 5f 1e e2 bd
       0.0067971763 -0.06971454 -0.057684097 -0.11040949
000130 cd c2 f1 bd 0a 3e 15 be 34 53 6c bc 14 e9 a3 3b
       -0.118047334 -0.14574447 -0.014424134 0.0050021503
000140 56 4c 3e bd 53 60 01 be 3d 46 c0 bd 54 c7 90 3c
       -0.04645952 -0.12634401 -0.09388397 0.017673172
000150 e3 c0 f8 bc 4b 6e 02 be 07 d1 03 be 1f 9a 99 bd
       -0.030365413 -0.12737386 -0.12872706 -0.075000994
000160 bf cb 4a bd 1b 3c 62 bc 4c b9 e5 bd 6f 92 3d be
       -0.049510714 -0.013808276 -0.11216983 -0.18512891
000170 7c e5 bd bd c5 5f 9b 3c 59 01 ff 3b 34 d3 4a be
       -0.09272286 0.018966565 0.007782143 -0.1980713
000180 8f 52 fd bd e1 cc 8b bd 80 00 3e bd 29 66 6d 3d
       -0.123692624 -0.06826187 -0.046387196 0.057958756
000190 c9 81 87 bc 30 1b a4 3d e4 26 88 3d 19 eb 02 3e
       -0.016541379 0.08012998 0.06648043 0.12784995
0001a0 29 0e d1 3d 7e 6e 24 3d 21 cd 86 3d ff 6b bc 3d
       0.10207779 0.040144436 0.06582094 0.09200286
0001b0 af e5 7b 3d d4 f3 dd 3d 14 d1 50 3d ae f1 97 3d
       0.06149834 0.10837522 0.050980642 0.074191436
0001c0 71 07 67 3d 0a 85 91 3d a2 e3 78 3d 20 ca d9 bc
       0.05640358 0.07105453 0.060763963 -0.026585639
0001d0 48 28 b0 3c bf f2 5f 3b 04 56 80 bc ab 9d 3a 3d
       0.021503583 0.0034171788 -0.015666015 0.04556052
0001e0 6b bc a3 bd 50 48 00 bd 80 8d 8a bd e8 85 90 bd
       -0.07994922 -0.031318963 -0.0676527 -0.070567906
0001f0 47 71 15 be fe 8c ef bd 95 6b 27 be 35 24 7c bd
       -0.14593993 -0.11696814 -0.16349633 -0.061557967
000200 8d 48 42 3d 9c 01 cd 3d 81 08 3c be 2f 6c b2 bd
       0.04743247 0.100100726 -0.18362619 -0.08712041
000210 ce 47 cf bd bf 71 79 3d a8 9c cd 3d bf 6a d3 bd
       -0.101211175 0.060899492 0.100396454 -0.103230946
000220 7a 53 42 bd 17 98 f2 bc a4 65 80 3d 12 c4 98 3d
       -0.04744289 -0.029613538 0.062693864 0.074592724
000230 49 8d 0d be 6d 54 1e bd 02 8e de 3c 69 47 b9 3d
       -0.13823427 -0.038654733 0.027167324 0.090468235
000240 5e 15 9d 3d 5d e3 00 bd 42 ef 8f 3c e1 56 cb 3d
       0.07670091 -0.03146683 0.017570142 0.0992868
000250 9d 5c d3 3d 87 5c c0 3c d7 6b 03 bc cd 2e 98 3c
       0.10320399 0.02348162 -0.0080213165 0.018577004
000260 b5 97 14 3d 55 dd 96 3c 5c 6d 8b 3d e5 0a 00 3c
       0.03627749 0.018416086 0.06807968 0.007815097
000270 f8 2f cc 3c c7 e5 80 bc e2 b7 5a 3b 15 95 a8 3c
       0.024925217 -0.015734566 0.0033373763 0.0205789
000280 1b 66 00 bd 81 5c a0 bc bc f6 ec bc 71 88 b4 3b
       -0.031347375 -0.01957536 -0.028926246 0.005509429
000290 9f 5a 17 3d 94 24 df bc 7f 34 4b bd 1f f1 91 bd
       0.036951657 -0.027239121 -0.04961061 -0.07126068
0002a0 68 0e 20 3d ba 76 8d bc 52 0d ac bd cd fe 11 bd
       0.03907624 -0.017268527 -0.08400978 -0.035643388
0002b0 11 f1 dc 3c 5e fc 4d bc 16 43 0a 3d 8c f3 12 bd
       0.026970418 -0.012572376 0.033755384 -0.035876796
0002c0 81 aa c8 bd da 43 65 bd 4e 01 c9 3c f9 52 76 3c
       -0.09798146 -0.05597291 0.024536755 0.015034431
0002d0 03 4b bc bd eb 8a 91 bd dd c7 05 bd 75 7c 80 3d
       -0.09193995 -0.071065746 -0.032661308 0.06273738
0002e0 a6 0f 5d 3d 2d e3 f6 bd 54 ce d5 bd 25 0e 8d bd
       0.05397 -0.12055049 -0.104397446 -0.068874635
0002f0 5f b7 9f 3b 25 aa 57 3d e4 47 1e be a1 2b 87 bd
       0.0048741545 0.052652497 -0.15457112 -0.066001184
000300 90 3e 30 bb 03 48 d9 3c d1 14 ca 3c 67 fb 03 bd
       -0.002689276 0.026523596 0.02466813 -0.032222178
000310 8e 2d 73 bc 81 41 9a bc 4c 49 ad 3d 6d 0d c5 3d
       -0.014842404 -0.018830063 0.08461246 0.096217014
000320 12 91 1f bd 51 3f 69 bd 04 37 ab bc 7a ab 61 3d
       -0.03895671 -0.05694515 -0.020900257 0.055095173
000330 a9 f4 0e 3e 19 b9 ad bc 86 80 8a 3b 1c 66 9a 3b
       0.13960518 -0.021206426 0.004226747 0.0047118794
000340 17 0b c9 3d 36 f4 29 3e b9 4f cf 3b bc 93 fb 3c
       0.09816568 0.16597065 0.0063266424 0.030710094
000350 fb a4 c2 3d 3e 50 c1 3c f4 5c f4 3d 43 fa 3e bd
       0.09504124 0.023597833 0.11931792 -0.046625387
000360 b7 a4 20 3c e0 ad 16 3d ce f5 58 3d e4 35 08 3c
       0.009804896 0.036786914 0.052968793 0.00831363
000370 43 3a bd 3b bb 78 84 3c 06 ac 06 bc a6 5c 66 bd
       0.0057747676 0.01617085 -0.0082197245 -0.0562407
000380 3a 03 8f bd 1c 57 55 bd be 7b e7 3c 39 88 fa 3b
       -0.06983037 -0.052085027 0.028257247 0.0076456335
000390 ba 49 5c bd 12 dc ab bc cc 18 f9 bd 48 2c b1 3a
       -0.05378125 -0.020978961 -0.12162933 0.0013517225
0003a0 80 b9 9f bd da 9f 2b ba 70 d4 82 3b de 43 51 bd
       -0.07799053 -0.0006546952 0.0039926097 -0.051090114
0003b0 72 0f 2a bd de f6 cc bd b4 8b bf bd 4f 4d 5e bc
       -0.041518636 -0.10008024 -0.09352818 -0.0135682365
0003c0 51 8d cd bd a1 67 9c bd 22 35 38 bd 91 dc 56 bd
       -0.100367196 -0.07636953 -0.044972546 -0.052456442
0003d0 6a c9 14 3d 87 8b f2 bd 18 1f fa bd 4e 84 c9 bd
       0.036324896 -0.11843019 -0.12212962 -0.09839688
0003e0 b7 50 85 bd 41 92 01 bd 9c 27 93 bc fa 45 0d 3c
       -0.06509536 -0.03163362 -0.017963223 0.008622641
0003f0 99 61 a9 3c 28 ce 16 3e d6 61 de 3d ac e0 4f bc
       0.020676421 0.1472708 0.108585045 -0.012687843

conv2.bias f4 [32]
000000 7b 17 5c 3d e2 9b 18 bd 8a de 27 3d 64 e7 6a 3d
       0.05373333 -0.037258036 0.040983714 0.057349578
000010 41 b0 0c bd 07 3e 6f bd e5 93 28 3d 3f 76 8c bb
       -0.034347776 -0.058408763 0.04115667 -0.004286557
000020 6d d2 85 bc b8 3c 89 3d ff 3b ee 3c 3e 88 e6 bc
       -0.01633569 0.06701034 0.029081343 -0.028141137
000030 e0 e8 8f bd 0c 5e 3d bb 4d 47 ec 3c a2 d1 ca 3d
       -0.07026839 -0.0028895168 0.028842593 0.099032655
000040 a7 77 a0 bb 48 6a 75 3d db a5 37 bd be 1d 84 bd
       -0.004897076 0.05991581 -0.044835906 -0.06450985
000050 5e 45 f4 3c 81 db 62 3d cf 35 86 3c af 26 29 3d
       0.029818233 0.055385116 0.01638308 0.041296657
000060 79 50 ac bb eb a1 b8 bc 32 92 6c 3c 70 29 7b b8
       -0.0052586165 -0.022538146 0.014439153 -5.9881655e-05
000070 0a 67 1c 3d 32 38 c4 ba 81 5b b2 3c 98 62 9c bd
       0.038184203 -0.0014970361 0.021772148 -0.07635993

fc1.weight f4 [120, 800]
000000 c3 a6 8d ba ab 33 b8 3b 76 2e f4 bc 99 05 1c bd
       -0.0010807145 0.0056213937 -0.02980731 -0.038091276
000010 b7 4a 0f bd 87 b0 b9 bc 5d 06 b3 bc 30 ff e7 bc
       -0.034983363 -0.022667183 -0.02185362 -0.028319925
000020 6c ad cd bc dc 6d c3 bc 5f a9 04 bd 91 97 ba 3c
       -0.025107108 -0.023856096 -0.032388087 0.02277735
000030 5a 2f 9e 3b 1f 4d 86 bb 58 20 ce 3c 56 70 51 3c
       0.004827422 -0.004098549 0.025161907 0.012783131
000040 85 d1 12 bd 3e a8 7c ba bb 69 aa bc e7 d2 91 3b
       -0.035844345 -0.0009638107 -0.02080237 0.0044501903
000050 ff a8 25 bb 3e 7b d9 3c b0 ec e0 bc f4 f3 8c bc
       -0.0025277731 0.026548024 -0.027456611 -0.01720617
000060 02 f8 a1 bc d1 4d 8f bc d4 4f d7 3c 43 f1 9d bc
       -0.01977158 -0.01749316 0.026283182 -0.019280082
000070 6a 01 bb 3c b8 5d a5 3c eb 47 03 3d 22 a3 a5 3c
       0.022827823 0.02018629 0.03205101 0.02021939
000080 e2 74 3b bc 67 7c 9d bc f8 c0 51 3c ad 6d 95 bc
       -0.011441441 -0.019224359 0.012802355 -0.018240774
000090 c0 25 ba 3c f2 a2 97 3c cf 12 02 bd f2 74 bd 3c
       0.022723079 0.018510316 -0.03175622 0.023127053
0000a0 44 0a 1b 3c 4a 82 02 3c f2 d7 d3 bc b5 4f 01 3d
       0.009462897 0.007965634 -0.025859807 0.031570155
0000b0 1c a5 dc 3c 45 09 e5 bc 6c 38 a2 3c 85 86 61 bc
       0.026934199 -0.027958522 0.019802295 -0.013764982
0000c0 9f ba 0e 3d 00 26 58 3a 66 7b 0a bd 60 45 ac 3c
       0.034845944 0.00082454085 -0.03380909 0.021029174
0000d0 3c c1 1b bd 84 3d 07 bd 74 c2 0a bd 79 af fe bb
       -0.03802608 -0.03301765 -0.03387685 -0.007772383
0000e0 71 01 09 bd 8b e0 a8 3b 95 44 e7 bc 24 f8 95 bc
       -0.03344864 0.0051537207 -0.028230945 -0.0183068
0000f0 58 03 70 3c 0a 4c b4 3c fe a2 05 bd 2d 0c 17 bd
       0.014649235 0.022008915 -0.032626145 -0.036876846
000100 f1 b0 47 3b fd 50 9e 3c d9 4e d0 bb c0 7b b3 ba
       0.0030470456 0.019325728 -0.0063570556 -0.0013693497
000110 0e 9c da bc 8f d2 09 bd 2d 3a 2a bc d5 65 eb 3c
       -0.02668574 -0.03364807 -0.010389847 0.02873508
000120 22 70 ad bc ac f8 62 bc 9c 94 5e bc ea eb 7d bc
       -0.021171633 -0.013853233 -0.013585236 -0.015498141
000130 56 ac e8 3c 05 dc 4d bb 68 c8 da bc 6b 37 21 bd
       0.028402489 -0.003141166 -0.02670689 -0.03935949
000140 ea c6 17 bd 18 b4 28 bd 93 dd 88 bc de 84 5f bc
       -0.037054934 -0.041187376 -0.016707217 -0.013642518
000150 c4 1a 76 bc 9b 3f 91 bb 4e 23 b5 3c 12 67 c6 3c
       -0.01502103 -0.004432631 0.022111561 0.02421907
000160 25 61 ad bc 11 5d b8 3c 91 d2 94 3c f1 62 9a 3b
       -0.021164486 0.022505315 0.018166812 0.0047115018
000170 74 53 44 ba c6 41 11 bd fe 97 dd bc 70 89 14 3c
       -0.0007489242 -0.035463117 -0.027050015 0.009065971
000180 d4 45 54 3c b2 2d 34 3c 92 e6 17 bc 98 a6 da bc
       0.012956101 0.010997223 -0.009271281 -0.026690766
000190 3a 1c 7b ba 1c 89 0c bd c7 51 ae 3b 83 8a 16 ba
       -0.0009579096 -0.034310445 0.005319807 -0.0005742686
0001a0 c0 dc ef bc fc 66 85 3c ef 75 80 3c a0 41 a9 3c
       -0.029280066 0.016284458 0.015681235 0.020661175
0001b0 c4 22 21 bd 45 b3 9a 3c aa 6b b1 3b 5c 7c df bc
       -0.039339796 0.01888431 0.005414446 -0.027280979
0001c0 03 b0 6f 3c 61 5f be bc d5 83 37 3c 13 e0 4d bc
       0.014629367 -0.02323884 0.011200865 -0.0125656305
0001d0 65 4e 5c bb 65 7e 8a 3c 34 a1 76 3c 10 11 1a bb
       -0.0033616063 0.016905973 0.015053082 -0.0023508705
0001e0 9d 03 e5 ba 7c 19 be bc c4 58 c6 3c d3 6f 0d bd
       -0.001747239 -0.023205511 0.024212249 -0.034530472
0001f0 a2 ec 1d bd 28 d5 f0 bc e6 f8 fb bc f9 fa 51 bc
       -0.03855575 -0.029398516 -0.030758332 -0.012816184
000200 7e a8 93 3c ce c5 2f 3c 48 94 bf 3b 15 30 08 bd
       0.01802468 0.010728313 0.005846534 -0.03324898
000210 80 66 5d bc 46 d6 64 bc 7e a5 e8 bc 66 c1 c7 3c
       -0.013513207 -0.013967102 -0.028399225 0.024384212
000220 46 d1 03 bd 14 f3 34 bc 79 ad b5 3c 54 38 7f 3c
       -0.032182 -0.0110442825 0.022177445 0.0155773945
000230 30 49 4a bc 31 ae 03 3d 80 11 9d b9 0c a1 fd bb
       -0.012346551 0.032148544 -0.00029958412 -0.0077401455
000240 b4 a6 81 bc 0b d0 98 bc bd b4 10 bd be b0 e5 3c
       -0.01582656 -0.01865389 -0.035328615 0.028038379
000250 b2 dc f8 bb e0 9c 5f 3b 8d 17 eb bb 84 e0 58 bc
       -0.0075946683 0.0034120604 -0.0071744383 -0.013237122
000260 52 5c a0 bc 37 4c f9 bc 5a 9e c3 3c 93 30 bb bb
       -0.019575272 -0.03043185 0.023879219 -0.0057125776
000270 5c 98 c4 bc af fb 18 bd c8 eb 29 bc f1 02 c5 bc
       -0.023998432 -0.0373494 -0.010371156 -0.024049254
000280 40 ec 13 bb 52 99 ce bc fd ed 66 bc 79 d4 84 3b
       -0.0022571236 -0.025219593 -0.014094827 0.004053649
000290 34 04 f6 bb 64 5a 05 bd 99 d3 13 3b 0e 86 d4 bc
       -0.0075078253 -0.032556906 0.0022556542 -0.025942829
0002a0 da 47 0e bd ed 2e 0a bd ba 33 66 3c 84 44 43 bc
       -0.03473649 -0.03373616 0.0140504185 -0.011918191
0002b0 0f a0 26 bd 68 09 60 3c ef c1 c8 bc 8a 92 16 bd
       -0.040679988 0.013674118 -0.024506537 -0.036760844
0002c0 fd c7 f2 3a 5d 82 a3 3a 95 a7 b6 bb 5a 64 ac bc
       0.0018522736 0.0012474764 -0.0055741766 -0.021043945
0002d0 e3 2b 01 bd 1f aa 7f 3b 8f b5 0d bd 4d 5d b3 bc
       -0.031535994 0.0039011312 -0.034596976 -0.021895075
0002e0 e2 0d a1 bc e6 07 9f 3c 5b 38 4e bc 0a 92 a9 39
       -0.01965994 0.019412946 -0.012586678 0.00032343
0002f0 49 0a d1 3c 26 9d e2 3b 75 d5 c8 3c 26 ab a3 bc
       0.0255176 0.006915706 0.024515847 -0.01997907
000300 c0 9f e9 bc 85 fc 08 bc 24 bd 89 bb b7 c6 72 bc
       -0.028518558 -0.008360987 -0.0042034555 -0.014817885
000310 d9 a1 07 3c 40 7f 00 3c db db bd bc 89 33 a0 3b
       0.008278334 0.007842839 -0.023176124 0.004888956
000320 df 3e a4 bc 3a d9 d9 ba 14 69 33 3a 99 00 a8 bc
       -0.02004951 -0.0016620525 0.0006843966 -0.020508097
000330 3a 83 19 3c 1f b1 e8 3c b4 f9 cd 3c 0e 36 91 bb
       0.009369666 0.02840477 0.025143482 -0.0044314926
000340 11 c5 cc 3b 2f b4 19 3c 4b 3c 06 b9 04 44 c3 bc
       0.006249078 0.009381338 -0.00012801697 -0.023836143
000350 f7 01 88 bc d2 cf cb bc 3a 52 14 bd c6 26 e9 3c
       -0.0166025 -0.02487937 -0.03621123 0.028460871
000360 04 03 87 3c 65 d2 f6 bc 30 ae fe bb 30 47 95 bc
       0.01648093 -0.03012962 -0.0077722296 -0.018222421
000370 2c 0b c7 3c 26 5f 73 bc c4 1c 52 3c f2 f9 36 bc
       0.02429732 -0.014854228 0.012824241 -0.01116799
000380 6a 6d c7 b9 d0 b7 a6 bc 09 af 15 b9 1c 7f be 3c
       -0.00038037758 -0.02035132 -0.00014274953 0.02325397
000390 b6 be b8 bb 57 87 d0 bc 78 f5 d9 bc fc 9e 9d 3c
       -0.005637969 -0.02545516 -0.026606306 0.019240849
0003a0 e7 21 c6 bc 51 19 04 bd cb f6 94 bb cd 79 07 bd
       -0.024186088 -0.032250706 -0.0045460216 -0.033075143
0003b0 7e f4 0d bd 11 f3 82 3c 7f eb 02 bc a0 f6 e7 3c
       -0.034656994 0.015985044 -0.007990717 0.028315842
0003c0 00 c0 b6 3b 15 60 8b bc e5 28 aa 3c c4 c3 ca bc
       0.0055770874 -0.017013589 0.020771453 -0.024751551
0003d0 46 75 bc 3b 47 1f dc 3b 50 12 d5 3b 96 c2 6a bc
       0.005751285 0.0067175957 0.006502427 -0.014328619
0003e0 d6 ec 8e bb 30 5a f8 bc 9a 6e ee 3c a0 82 87 bc
       -0.004361729 -0.030316442 0.029105473 -0.016541779
0003f0 41 8c cc bc 9e bb 1e bb b2 fb ae bc fb a0 cb 3a
       -0.024969222 -0.0024220715 -0.021360252 0.0015535647

fc1.bias f4 [120]
000000 46 d8 82 3c 60 42 80 bd 9e 33 23 bd a5 f2 b8 3b
       0.015972268 -0.0626266 -0.039844148 0.00564416
000010 94 96 32 bc 07 59 0d bd 3d 5d 6d bb 25 d1 94 bb
       -0.010900158 -0.03450873 -0.0036218904 -0.0045415335
000020 45 1e 8e bc be 42 a5 3d ab 4b 47 3d b9 ed 17 3d
       -0.017348418 0.08069371 0.048656147 0.037091944
000030 36 08 5d bc 3d 31 06 3c 33 a4 da 3c 36 0d 7f 3d
       -0.013490727 0.00819045 0.026689624 0.06226846
000040 17 44 be bb db ec cd 3c a2 0d 92 3a a1 4b 1c bc
       -0.005806457 0.025137356 0.0011142979 -0.009539516
000050 a0 60 1f bc 21 8d 05 3c ef 90 bf bc 5c b9 8a 3d
       -0.009727627 0.008151324 -0.02338454 0.06773636
000060 7d 32 27 3d e9 79 93 3b 28 2e dd 3a 8d 63 07 3d
       0.040819634 0.004500617 0.0016874718 0.033053923
000070 36 d9 1a bd e7 27 18 3d 0f 4f 31 3d 7b 6b 72 bd
       -0.037804805 0.03714743 0.043288287 -0.059184533
000080 49 02 2b 3d 75 4c 50 3d 92 90 fa 3d 48 ff 13 b9
       0.041750226 0.050854165 0.12234606 -0.00014114112
000090 fa d6 f3 3a bd aa 2c 3d 35 d8 2d bd 06 6f ba bc
       0.0018603497 0.042155016 -0.04244252 -0.022758018
0000a0 be 58 8d bc a9 bb 68 bc 91 5f 02 bd 40 63 b6 3d
       -0.01725423 -0.014204898 -0.03182942 0.08905649
0000b0 85 08 d2 bc e6 fb 77 bc 65 46 86 3d 78 96 8a 3c
       -0.025638828 -0.015135741 0.065563954 0.016917452
0000c0 c6 c2 67 3a 2f 43 38 bd b7 5b de 3b 98 0b 44 3d
       0.0008840974 -0.044985946 0.0067858356 0.04786262
0000d0 d1 a9 53 bd ec 55 b9 bc 49 71 c6 bc 4f 5a 0a 3d
       -0.05167562 -0.022623979 -0.02422394 0.03377753
0000e0 86 a7 16 bd 35 d1 ba 3a 7c 87 67 bc 3b ed 13 3d
       -0.036780857 0.0014253022 -0.014131423 0.036114912
0000f0 70 f7 3e 3c ae d1 98 bc dc 21 3c 3d d5 a9 a0 3d
       0.011655673 -0.01865467 0.04593073 0.07844893
000100 d9 4a 01 bd ef be 8b 3d f6 26 b5 3d f6 ae 67 3c
       -0.03156552 0.06823527 0.08845322 0.014140835
000110 1c 5a eb 3d cb d9 a9 3d 14 78 89 3d 8c 98 bd 3d
       0.114917964 0.08293494 0.06712356 0.09257612
000120 b4 e2 48 bc da 62 d5 bc 47 ab ab 3d b1 c6 94 3c
       -0.0122610815 -0.026048113 0.08382278 0.01816115
000130 d1 be 01 3d 50 24 60 3d 1d 57 9a bc 04 d8 66 3d
       0.031676117 0.05472213 -0.018840367 0.056358352
000140 ad fb aa 3d 14 c6 01 bd ee 7b bb 3d 6a 89 0b bd
       0.083487846 -0.031683043 0.09154497 -0.034066595
000150 05 ea 7a bc 31 4f cf 3c 6c fb 39 3d b0 b8 97 bc
       -0.015314584 0.025306316 0.04540579 -0.018520683
000160 92 6b d2 b8 c6 e8 08 ba ce 15 1e bc 4b d1 c6 bc
       -0.00010033617 -0.0005222674 -0.009648753 -0.02426972
000170 bc 77 ec 3d 57 f1 02 bd f8 a0 df 3d 86 c3 2b bd
       0.11546275 -0.03196844 0.10919374 -0.041934513
000180 21 39 97 bc cf 87 79 3c 98 5f 34 bd 34 d3 c7 3c
       -0.018459858 0.015230133 -0.044036478 0.024392702
000190 b3 70 be bc 24 6b 2d bd ba b4 8b 3c 70 03 bd bc
       -0.023247099 -0.042338505 0.01705395 -0.023072928
0001a0 e4 f8 d7 3b 92 ba 3b bc e3 93 66 bd 6e 80 ad 3d
       0.0065909494 -0.011458056 -0.05629338 0.08471762
0001b0 04 2f c3 3c 6b 27 b4 bc 98 b0 27 bd dd 39 f5 bc
       0.02382613 -0.021991452 -0.040939897 -0.029934818
0001c0 41 b4 00 bd 1c a3 54 3d 4f 0d 23 bd 4c 7c e9 3b
       -0.031421904 0.051913366 -0.039807614 0.007125413
0001d0 c2 cb 9f 3d a4 5a 92 3c ea 73 24 bd 0c 7f e8 bb
       0.078025356 0.017865486 -0.040149607 -0.0070952233

fc2.weight f4 [84, 120]
000000 6d 46 90 3d ac 13 d8 bd 9c be 6a 3d 62 f1 1b be
       0.07044683 -0.10550627 0.057310686 -0.15228799
000010 f7 01 04 bd 5c 96 3d bd 1e b6 db bd 81 0c 82 3d
       -0.032228436 -0.046285972 -0.107280955 0.06350041
000020 51 ad bb bd 3e 6f 83 bd fb c7 9a bc a0 87 3c bd
       -0.09163917 -0.06417702 -0.018894186 -0.04602778
000030 68 3d 29 be c7 42 a1 3d 92 f1 80 bd 50 db e6 3d
       -0.16527331 0.07874065 -0.06296076 0.11272299
000040 a7 82 18 3e 7c 3c 88 bd c3 ff cb bc f1 c3 0b 3d
       0.1489359 -0.066521615 -0.02490223 0.03412241
000050 f1 97 48 3b 09 88 85 bc ba c0 91 3d 69 6e 0e bd
       0.0030608142 -0.016300218 0.07116838 -0.034773264
000060 2d 87 57 bd 0e a7 e4 bd 38 77 19 bd 73 cc fd 3c
       -0.052619148 -0.11164676 -0.03746721 0.030981278
000070 91 a0 2f 3d 39 cd dd bd ad ea b5 ba fa 85 dd 3d
       0.042877737 -0.10830159 -0.0013879143 0.108165696
000080 62 0c 44 bc 3c 44 d6 3c bd e3 8b bd fe d3 0d 3e
       -0.011965843 0.026155584 -0.06830547 0.138504
000090 c2 c2 7a bd 78 52 1a bd 59 bf 4c 3d 98 84 49 bd
       -0.06122089 -0.037676305 0.04998717 -0.049198717
0000a0 83 01 2d 3e 25 b4 bb bc af 69 02 3d b6 5e 2d bd
       0.16895108 -0.022913048 0.03183907 -0.04232665
0000b0 98 8f 51 bc b6 da 2c 3c eb 89 fa bd 92 40 ce bd
       -0.012790583 0.010550192 -0.12233337 -0.100709096
0000c0 9a ab d0 3a 50 e5 bc 3b f0 75 e3 bd 3a dc 37 3c
       0.0015920282 0.005764641 -0.11106479 0.01122194
0000d0 83 4b f3 3c 13 41 35 bd 6d 64 49 bd 07 66 81 bd
       0.029699093 -0.044251513 -0.04916804 -0.06318288
0000e0 7f fb 9f bd 0e 83 d1 3d e1 b8 93 bd 7b 68 87 3e
       -0.07811641 0.10230075 -0.07212997 0.264469
0000f0 31 a6 96 bc f4 4d c2 bc f6 47 3d bd 76 66 4b 3d
       -0.018389793 -0.023718812 -0.046211205 0.04965826
000100 30 8e de 3d bb 4a 13 3d 21 2d 97 bd b9 0b c7 3d
       0.10866964 0.03595994 -0.073816545 0.09719033
000110 35 c9 73 bd d5 a3 2f 3d 86 4e 33 bd 9d 5b 15 be
       -0.059518058 0.04288085 -0.043776058 -0.14585729
000120 63 ab 4e bd 5a f3 52 bd 07 5a be bc c9 06 64 3d
       -0.050456416 -0.05150161 -0.023236288 0.055670533
000130 c3 05 4b 3d 79 3a 8d 3d df e0 b9 3d 47 e0 b7 bd
       0.04956604 0.068959184 0.09076094 -0.089783244
000140 7d cf 80 3d ea a9 fc 3d 54 13 31 3d 60 9e 82 3d
       0.06289575 0.12337096 0.043231323 0.06377864
000150 e3 c9 20 3b 01 8c cb 3d 6c 49 99 bd 48 01 99 bd
       0.0024534396 0.09938813 -0.07484707 -0.074709475
000160 0f 45 04 3e 11 85 0e bb 2a 5b 20 bd 37 f5 68 3d
       0.12916969 -0.0021746794 -0.03914944 0.05687448
000170 59 0d 84 3b b6 08 9b bd fb 61 bf bd b3 2f e5 bd
       0.0040299115 -0.07570021 -0.0934486 -0.111907385
000180 88 eb 39 3d 0e f2 b4 bd 86 96 4b ba b9 cf a5 3d
       0.045390636 -0.08835231 -0.0007766265 0.080962606
000190 eb 4e 51 3d a1 20 3a bd c1 d5 e3 3b 80 7f 42 bc
       0.051100653 -0.045441274 0.0069529717 -0.011871219
0001a0 7e 04 12 bd e8 14 22 3d 9b f8 90 3d a1 da 95 3d
       -0.035648815 0.03957072 0.07078668 0.07317091
0001b0 8f 47 10 bd ec 42 f8 3d 63 c6 f6 3d b8 7f 67 3d
       -0.035224494 0.12122139 0.12049558 0.056518286
0001c0 f3 fc 47 3c e8 23 8d 3d 4b 89 3c 3d 8c 1c 9f 3d
       0.012206304 0.06891614 0.04602937 0.07769117
0001d0 e4 7a 1c 3d 01 cb 92 3d 4e a4 86 3c d5 42 11 bd
       0.038203135 0.07167626 0.016435768 -0.035464127
0001e0 74 a9 15 bd 5e fc 92 3d 98 ca b6 3d 30 fd a3 3b
       -0.036538556 0.071770415 0.089253604 0.0050045475
0001f0 76 21 9c 3d fd 6a c9 3d c0 1f 83 3d ee ed 5c bc
       0.0762357 0.098348595 0.0640254 -0.013484461
000200 83 6d 75 bc f1 7a bd bc a6 b0 8c 3d 14 c7 05 bc
       -0.014979723 -0.023129912 0.068696305 -0.00816514
000210 f0 b0 31 bc 5a f9 b9 3c cc d2 c1 3c 26 6b af bd
       -0.010845408 0.022701908 0.023660086 -0.08565359
000220 50 be a9 bd 26 c8 2a bd d8 1a ce bc 34 3b 99 bc
       -0.08288252 -0.041694783 -0.025159284 -0.018704988
000230 35 f7 8a bd bc 05 fb 3c f0 58 78 3c dd 74 6f bd
       -0.06785432 0.030642383 0.015157923 -0.05846106
000240 3d bc 4f bd 16 4a ca bd 82 85 5b 3c f9 42 a4 bc
       -0.050716627 -0.09877412 0.01339853 -0.020051466
000250 7c 79 76 3d ac 19 9c 3d 65 6f 5e 3d c2 37 91 3d
       0.06017445 0.07622084 0.054305453 0.07090713
000260 ff c4 3a 3d 30 36 b7 bd 5a fb b8 bd b3 91 77 bc
       0.045598026 -0.08945882 -0.090323165 -0.015110421
000270 70 62 5d bd f6 d3 0a 3c 5a 88 94 3d 10 ba 4c bc
       -0.054048955 0.008473387 0.072525695 -0.012495533
000280 88 69 27 bc 12 f2 89 bd 01 d4 31 bd 79 b7 90 3c
       -0.010218032 -0.067356244 -0.043415073 0.017665612
000290 79 e3 83 bd 38 84 92 3c 49 0b d0 bc dd 4f 6a bd
       -0.06439871 0.017885312 -0.025396006 -0.05720507
0002a0 70 3c 63 3c b8 6b a4 3c 4a 68 03 3d fe 73 89 3d
       0.01386939 0.020070896 0.03208188 0.06711577
0002b0 30 5b f5 3b 52 7d 9d 3d e0 e5 31 3b bf 44 5d 3d
       0.007487677 0.076899186 0.0027145073 0.05402064
0002c0 ba 60 fd bc 0a 1c f5 3b ac 2e af bc 1e d5 a1 3c
       -0.030929912 0.007480149 -0.02138456 0.019754943
0002d0 69 00 7f bd 20 5f 61 bc 3e 36 b4 bc a7 10 36 bd
       -0.06225625 -0.01375559 -0.021998521 -0.044449475
0002e0 93 25 b2 bd 5e 7f 02 3d 26 2c 28 3c 2e 77 aa bd
       -0.08698573 0.031859748 0.010264432 -0.08323513
0002f0 ba 75 87 bd 59 ee 8d bd 7f 5f c5 bd 36 e6 27 bd
       -0.066142514 -0.06930227 -0.09637355 -0.04099103
000300 a8 73 57 3d 12 ad 80 bd d0 35 d5 bd ec f0 87 3d
       0.052600533 -0.062830105 -0.104106545 0.06637749
000310 e8 25 f9 3c 1f bb 05 3d 18 94 9b 3d b6 bf 88 3d
       0.030413583 0.032649156 0.07596606 0.06677191
000320 f4 02 29 3d dd 51 47 bd 76 d0 28 bd 53 a1 72 bd
       0.041262582 -0.048662055 -0.04121443 -0.059235882
000330 80 7e 29 bc 6d 3e 51 3d 00 d7 6b bc 9c 83 9c bc
       -0.010345101 0.051084924 -0.014394522 -0.019105725
000340 f6 0c ae bd 96 d4 77 bd 94 6f a8 bc e0 0e 8d 3d
       -0.08498566 -0.060505472 -0.020561017 0.06887603
000350 e9 76 9c bb fa 86 81 3d 44 cb 72 3d fe cd 98 3d
       -0.0047749174 0.06324573 0.05927588 0.07461165
000360 74 2f 87 bd 7c cd b1 3c b8 bc 26 3d 0b 63 ab 3d
       -0.06600848 0.021704428 0.04070732 0.083685
000370 78 0b 42 3d ac 88 00 bd 56 a3 96 bd 3c c2 bf 3c
       0.04737422 -0.03138034 -0.073553726 0.023408048
000380 d9 1e 03 bc 47 48 49 bd bf b6 91 bd 88 f0 62 3c
       -0.00800296 -0.049141195 -0.07114934 0.013851292
000390 34 8d 9f bd e0 a4 71 3d d7 fc 99 bd 87 4b 1b bd
       -0.07790604 0.058995128 -0.075189285 -0.037913825
0003a0 a2 06 27 bd dc 8f 90 bc 68 90 9e bd ef 4a 88 3d
       -0.04077781 -0.017646722 -0.07742387 0.066549174
0003b0 29 25 86 bd a8 76 9e 3c ba 85 aa bd 2a 88 37 bd
       -0.065500565 0.01934369 -0.083262876 -0.04480759
0003c0 ae 20 98 3d 43 93 60 bd 4a 32 e8 3c 10 b2 d0 bd
       0.07428108 -0.05482794 0.028344292 -0.10190213
0003d0 ef c5 5e bd d5 38 fc bc 94 b5 96 3d 39 b2 88 bc
       -0.054387983 -0.030788818 0.07358852 -0.016686546
0003e0 20 95 2c bd 5d 6f 0e bd 47 4a 54 bd 7a 98 d9 bd
       -0.042134404 -0.034774173 -0.05182865 -0.10624786
0003f0 65 3f a8 bc 5f 61 45 3d a6 13 a4 ba a9 18 57 bd
       -0.020538041 0.048188563 -0.0012518063 -0.052513752

fc2.bias f4 [84]
000000 c3 7b c1 3c ef 1f b8 bd f7 03 3a bd 26 d6 6a 3c
       0.023618584 -0.08990466 -0.045413937 0.0143332835
000010 c3 ad 40 3d 4c 6e de 3c 42 b2 6f bd fc 72 97 3d
       0.047040712 0.027152203 -0.05851961 0.073949784
000020 01 fb 6e bd 37 20 94 3d c4 55 62 3d 81 96 81 3d
       -0.058344845 0.07232707 0.055257574 0.063275345
000030 dc d8 17 3e 2a 87 83 3d 5d 48 ad 3d fd 0b 9a 3d
       0.14828819 0.06422265 0.08461068 0.07521818
000040 6f b1 23 bd 7b a6 7f bd f5 70 40 3c 0f 06 00 bc
       -0.039964136 -0.062414628 0.011745681 -0.0078139445
000050 e7 a4 9b 3d 94 90 83 bd eb 36 76 3d 0e 48 ee bc
       0.07599812 -0.064240605 0.060110968 -0.029087093
000060 3d 43 85 bc 17 59 bd 3d 4d 0e 2e 3e ca a6 e1 3d
       -0.016267413 0.09245508 0.16997643 0.110181406
000070 01 da 3b 3d 31 12 63 3d 27 b3 6b 3d c8 0c 23 3b
       0.0458622 0.05543727 0.0575439 0.0024879444
000080 1e c1 ef 3d 03 b5 36 bd 60 c1 ef 3d 8d df 8c bd
       0.11706756 -0.04460622 0.11706805 -0.068785764
000090 ba 25 94 bc 74 1d aa bd fd 4e 55 3d c9 12 f2 3d
       -0.018084396 -0.08306399 0.052077282 0.11819989
0000a0 53 60 41 3c ba 4d 37 3d 84 3d 9b 3d 67 22 c7 bc
       0.011802751 0.04475186 0.075800925 -0.024308397
0000b0 68 cf 7b bd ce 90 2a 3d a5 b3 8a bd ad 89 00 bd
       -0.061477095 0.041642003 -0.06772546 -0.031381298
0000c0 1d da b2 bd 16 73 bf 3b 6c ec 08 3e a4 a5 61 bd
       -0.08733008 0.0058425767 0.13371438 -0.055089608
0000d0 e9 2b a2 3c 5d d3 7e 3d 30 f3 b0 3c 55 46 0e 3e
       0.019796329 0.06221329 0.021600336 0.13894017
0000e0 80 53 a9 3d 4f a0 4b bc 6f 91 2e bc f9 ab 89 3d
       0.082678795 -0.012428357 -0.010654791 0.06722254
0000f0 9c 6e dd bd 75 d3 20 bd 84 6e a2 bd 53 9c 8b 3d
       -0.10812113 -0.03926416 -0.079312354 0.06816926
000100 73 64 0f 3e d6 92 56 3c d2 a3 44 3d bc f6 d7 3d
       0.14003162 0.013096532 0.048007794 0.10545108
000110 9a 83 c2 bd 18 d1 72 bd a7 df be 3d 7a 6d 08 3c
       -0.09497757 -0.05928144 0.09320002 0.0083268825
000120 5f 61 8f bc b2 47 bf 3b c1 68 98 3c 8f 72 a2 bd
       -0.017502485 0.005837404 0.018604638 -0.079320066
000130 48 93 cb 3d 2b 6a 2c bd 38 4a 08 3e fc 91 9a 3b
       0.09940201 -0.042093437 0.13309562 0.0047171097
000140 13 6f 29 3b 39 f0 3c 3d 12 07 a2 3d e5 4c 0b be
       0.002585356 0.04612753 0.07911505 -0.13603552

fc3.weight f4 [10, 84]
000000 6d 0a ed 3d 19 55 c9 bc 57 2f ad 3d e0 d1 4a bd
       0.11574254 -0.02457671 0.08456295 -0.04951656
000010 f9 48 8e bd 2c d8 be 3d c5 e5 ac 3c d1 4b c9 3b
       -0.06947512 0.09318575 0.021105656 0.006143071
000020 51 8a 59 3d c6 ba 94 bc ab 9a bf bd 81 bc df 3c
       0.053110424 -0.018155467 -0.093556724 0.027311565
000030 ce 7f 96 3c 09 b2 42 bd f3 d2 86 3d d7 31 e7 3d
       0.018371489 -0.04753307 0.06583204 0.11288803
000040 57 d9 db bc f2 4d a0 bc 2c f7 ba 3d eb 81 a9 3c
       -0.026837034 -0.019568417 0.091291755 0.020691833
000050 d3 6d 8b 3d 93 52 8c 3d f4 93 bc 3d 92 04 4c bc
       0.06808057 0.06851687 0.09207907 -0.0124522615
000060 6e d5 b4 bd 44 9c 25 bd 7a 00 1c be 88 28 b6 ba
       -0.08829771 -0.04043223 -0.15234557 -0.0013897577
000070 67 1f df bc c8 d5 f6 3d b3 01 03 3e 74 55 d9 3c
       -0.027236653 0.12052494 0.12793617 0.026530005
000080 a4 e6 62 3d c1 00 06 3d b0 30 66 3c c8 ef 90 bc
       0.055395737 0.032715563 0.014049694 -0.017692462
000090 41 c7 18 3d e3 9d 94 3d 61 0b c6 bd 82 af 7e 3c
       0.0372994 0.07256677 -0.09670139 0.015544774
0000a0 f1 4f 40 bc 28 33 46 3c 0a 1b 2a 3c ad 0a b1 bc
       -0.0117378095 0.012097158 0.010382423 -0.021611536
0000b0 6e c6 52 bb 27 51 cb 3d 7b 4e 5e 3c e9 37 fd 3d
       -0.003216173 0.09927588 0.013568516 0.1236418
0000c0 1e 46 69 bd 4d 34 96 bd 95 c5 9c 3c 2a 76 b7 bd
       -0.056951635 -0.07334194 0.019137183 -0.08958085
0000d0 92 34 ea bc 16 f7 06 3e 4d 81 3e bd 58 f8 82 3d
       -0.02858952 0.13180193 -0.04651003 0.06395024
0000e0 52 4b 88 bd 94 b5 fa 3d d7 bf 05 bd b8 86 5d 3d
       -0.06654991 0.122416645 -0.032653656 0.054083556
0000f0 05 39 43 bd 82 90 b5 3d c4 71 c0 bd 61 89 9a 3c
       -0.0476618 0.08865453 -0.09396699 0.018864335
000100 c4 81 fb 3c 69 4f aa bd 17 78 5d bb 8b 55 0d 3d
       0.030701526 -0.083159275 -0.0033793503 0.03450541
000110 32 f5 a6 bc 0a c5 c9 bd 68 75 f5 3d 65 2c 2b 3d
       -0.02038059 -0.09852035 0.11985284 0.041790385
000120 c3 1d 64 3e df 66 9b 3d 3c 12 bf 3d 4a 59 06 bd
       0.22276978 0.075879805 0.0932965 -0.032799996
000130 a4 7b 00 3e 63 c5 a9 bd cb b0 c2 3d 46 43 73 bd
       0.12547165 -0.08289602 0.09506377 -0.05939033
000140 c3 1b fa 3c 55 1a f6 bc 92 93 92 3c 8d 9b 2e 3d
       0.030530816 -0.030041853 0.017892633 0.042628814
000150 ff 30 14 bd f2 1a 12 3d 9f c4 c0 bc 88 46 1e be
       -0.03617954 0.03567023 -0.023531256 -0.15456593
000160 e8 1c b8 bd ee b2 32 bc 06 26 60 bd 47 4e 74 bb
       -0.089898884 -0.010906918 -0.054723762 -0.0037278102
000170 9f d4 e0 3a 3c 88 ff bc 88 e0 c8 3d 2e 35 e3 3c
       0.001715321 -0.031192891 0.09808451 0.027735319
000180 98 20 e3 3d 6b 05 14 bd 65 2a ab ba 25 63 b5 3d
       0.11090201 -0.03613798 -0.0013058899 0.08856801
000190 0b 46 c1 3d ae dd 89 3d f0 3e f8 bc 3b 50 a8 3c
       0.09437188 0.06731735 -0.030303448 0.02054607
0001a0 d6 6f d0 bd 80 9b 1e 3d aa 03 9c bc 20 c2 ab bd
       -0.10177581 0.038722515 -0.019044716 -0.08386636
0001b0 db e1 a6 bd 27 f0 a9 3d d0 55 19 3e 68 27 83 3d
       -0.08148547 0.082977585 0.14974141 0.064040005
0001c0 7d 57 cb 3d 05 1f 56 bc 9f 13 ed bd a4 0f 64 be
       0.099287964 -0.013068919 -0.11576008 -0.22271591
0001d0 d3 a8 03 bd 75 5f 44 bd a1 57 7b 3d 3c cd 4f bd
       -0.032143425 -0.047942597 0.061362866 -0.050732836
0001e0 51 8d d8 bd b9 36 90 3d 4a 58 e2 3c 77 63 bc 3d
       -0.10573829 0.070416875 0.02762999 0.09198659
0001f0 39 e6 aa 3d 5d ac cf 3c 60 ba dd 3d 80 ed 3d bd
       0.08344693 0.025350744 0.10826564 -0.046369076
000200 aa c6 3e 3d 7a 2f 21 3d dd b9 ba ba c6 a2 ec bd
       0.04657618 0.039351918 -0.0014246065 -0.11554484
000210 f2 d1 92 bd 69 35 af 3c 72 21 db 3d d0 94 a2 3d
       -0.0716895 0.021387773 0.106997386 0.0793854
000220 1c 58 da 3c 74 c7 97 bd 9a b0 37 bd 52 18 f0 3d
       0.026653342 -0.074110895 -0.044846155 0.11723389
000230 56 1f c5 bd cb 5f cd bd 58 09 5b bd 38 25 cd 3d
       -0.096251175 -0.10028037 -0.053475708 0.100168645
000240 dd dc 6b bd 5b 3a 89 3d 02 ef 88 bd d9 e0 40 3d
       -0.05758368 0.067005835 -0.06686212 0.04708943
000250 5e 1d bf 3d be 47 33 bd c4 17 e8 ba 56 ac 7b bd
       0.09331773 -0.04376959 -0.0017707278 -0.06144365
000260 bc c9 f3 bc 81 71 fd b9 fc b2 90 bd 0d 0f 9c 3a
       -0.02975928 -0.00048340487 -0.070653886 0.0011906341
000270 af aa ea bd 43 e5 03 bb 6a 43 91 3d 57 72 78 bd
       -0.114583366 -0.0020125664 0.07092936 -0.060655918
000280 33 19 05 3d ad af cd bb 19 a5 5c 3d 10 9f cf bc
       0.032494735 -0.0062770457 0.053868387 -0.025344402
000290 e2 9d 02 be 7c 77 95 bd 17 c9 64 3d 41 02 7c 3c
       -0.1275554 -0.072981805 0.055855837 0.015381397
0002a0 89 93 81 be a2 06 29 bc 85 73 cf bc eb 44 21 bd
       -0.25307873 -0.010316523 -0.025323639 -0.039372366
0002b0 2f 92 5b bd ff b5 68 bd 9c 6b 00 3d e9 36 2f 3c
       -0.05360621 -0.05681419 0.031352624 0.010694244
0002c0 fc 03 95 3b e8 c3 b8 be 56 cf 06 bf 58 70 ab bb
       0.004547594 -0.36086965 -0.5266012 -0.0052318983
0002d0 f5 4f 86 bd c9 45 82 3d c2 79 0f be 4e 55 c9 bd
       -0.06558219 0.06360967 -0.1401129 -0.09830724
0002e0 ea 50 cb bd fe 25 86 bd 9d 0f a1 3c a4 cf c8 bd
       -0.099275425 -0.06550215 0.019660765 -0.09805229
0002f0 02 c5 f4 bd 47 91 03 be 2c 78 93 bd 88 2f c4 bd
       -0.11951639 -0.12848388 -0.07200655 -0.09579378
000300 a0 02 a0 bc f6 a2 c9 be a8 31 96 be 97 a8 51 bd
       -0.019532502 -0.39382142 -0.2933476 -0.05118617
000310 c4 63 a8 bd eb 6d a1 be fe 4f 2b bd 29 d8 bc be
       -0.08222154 -0.31529173 -0.041824333 -0.36883667
000320 d3 57 12 bc 17 8b 1f bd cf fe 06 be 0f 99 88 3d
       -0.008932072 -0.038951006 -0.1318314 0.066698186
000330 21 20 09 bf 0f 23 93 bd 06 14 98 be a9 2e 44 bc
       -0.5356465 -0.07184421 -0.29702777 -0.011974015
000340 89 79 38 be 5e 48 6a bd 9d 8a 8f bd ab 72 65 bd
       -0.18015112 -0.05719792 -0.0700886 -0.05601756
000350 38 1f c2 bd a3 64 0e be 07 96 0f bd 64 4f 38 be
       -0.09478611 -0.13905577 -0.035055187 -0.17999035
000360 83 1c 06 bd ed 3c 2f bd 38 83 d6 bd ac 83 17 be
       -0.032742035 -0.042782713 -0.10474247 -0.14796323
000370 28 da 5a 3d 6c a5 19 be e7 58 d5 bd 7e 73 d0 bd
       0.053430706 -0.1500451 -0.104173474 -0.101782784
000380 05 55 2a bd 15 fa 24 be 75 b5 df be a7 71 a2 bd
       -0.041584987 -0.16111024 -0.43693128 -0.07931834
000390 42 95 66 bd 3c 4a 65 be 7c 83 84 3c 2d 3a 02 be
       -0.056294687 -0.223916 0.016175978 -0.12717505
0003a0 7f 4e dd bc a3 b0 82 bd e2 79 45 be d1 06 fd 3b
       -0.027014969 -0.06381347 -0.19284776 0.00772176
0003b0 e5 5c 6a bd df af 98 bd 72 42 71 bd b3 3d fa bd
       -0.057217497 -0.0745542 -0.058901258 -0.122187994
0003c0 09 e9 f5 be cc 0c ce bc 40 28 23 3d 03 a1 c0 3d
       -0.48029354 -0.025152586 0.039833307 0.094057105
0003d0 49 85 9e bd bc 45 cd bc 11 d4 3a be 32 a3 9d 3d
       -0.07740266 -0.025057666 -0.1824496 0.07697143
0003e0 31 ad c8 be 2c 2f 4b 3d 8d 92 4b be c3 6e b7 3d
       -0.39194635 0.049605533 -0.19880123 0.08956673
0003f0 db d4 71 3b f1 68 d3 bc 05 98 cc be 67 a7 9d 3d
       0.0036900553 -0.025806876 -0.39959732 0.07697945

fc3.bias f4 [10]
000000 9a cf 1d 3d 69 9e 12 3e 6e 17 60 bd 1e a8 97 3d
       0.038528062 0.14318241 -0.054709844 0.07405113
000010 77 c7 57 3d a1 85 e5 3b 6f f2 ab bc bf b5 7a 3d
       0.05268046 0.007004455 -0.020989625 0.061208483
000020 31 65 e3 bd 6e d7 8f bd
       -0.11103285 -0.07023512
